cylinder2D/data/senseiver_2.pth (torch, 524613 bytes, 125 tensors)

latent f4 [4, 16]
0	0x3b972e0e	0.0046136444
1	0xbd13f858	-0.03612551
2	0x3bf5d170	0.0075017735
3	0x3c8a70cb	0.016899487
4	0x3dc00ca2	0.093774095
5	0x3cce187d	0.025158161
6	0xbd4affaf	-0.049560245
7	0x3c29782c	0.010343593
8	0x3c875bae	0.016523208
9	0xbcd3914e	-0.025826123
10	0x3d2a0084	0.041504398
11	0xbc9f9a60	-0.019482791
12	0x3dd2490b	0.10267838
13	0x3cbc183b	0.022960773
14	0xbd6fb341	-0.05852056
15	0x3a4a9efc	0.0007729379
16	0xbd922905	-0.0713673
17	0x3d83bb6b	0.064322315
18	0x3c856a56	0.016286056
19	0xbd95b15e	-0.07309221
20	0xbd8f3a3b	-0.069935285
21	0x3c063c29	0.008193054
22	0x3d0155e0	0.031576037
23	0x3d430184	0.047608867
24	0x3d72f3e6	0.05931463
25	0xbd56d494	-0.052448824
26	0x3d92401b	0.071411334
27	0x3b19025b	0.0023347351
28	0x3d108b15	0.03528889
29	0xbd506e6d	-0.05088656
30	0xbd305179	-0.04304645
31	0x3c50c8b1	0.012743161
32	0x3d00c87e	0.031441204
33	0xbd1e8464	-0.038700476
34	0xbdb04f88	-0.086089194
35	0x3c7e8b10	0.015536085
36	0x3c196015	0.009361287
37	0x3d2636be	0.04057955
38	0x3cd78226	0.026307177
39	0xbb9881c6	-0.004654142
40	0x3c6adeb9	0.014335328
41	0x3ca90980	0.020634413
42	0x3b6fbbe3	0.0036580495
43	0xbdd7a0e5	-0.10528735
44	0x3d3ee47c	0.04660462
45	0x3d2f0d9f	0.0427376
46	0x3d276590	0.040868342
47	0x3c740b52	0.014895277
48	0xbb94b29a	-0.0045378925
49	0x3cf8e37b	0.030381909
50	0x3cd7700a	0.026298542
51	0xbd15a5b8	-0.036534995
52	0x3b460bcf	0.003021944
53	0x3d4fe9ee	0.050760202
54	0xbce9ef55	-0.028556505
55	0xbc8f40e8	-0.017487004
56	0xbc2c7649	-0.010526248
57	0x3b265f53	0.0025386408
58	0x3c777593	0.0151037155
59	0x3d0e2b9c	0.034709558
60	0x3bce39a0	0.0062934905
61	0xbd90c9a7	-0.07069712
62	0x3c8a577a	0.016887415
63	0xbd0a0de1	-0.033704642

weight f4 [64, 129]
0	0xbf93d205	-1.1548468
1	0x3d1e7710	0.038687766
2	0xbda1a109	-0.07892043
3	0xbd91ebef	-0.07125079
4	0xbd15d43e	-0.036579363
5	0x3cf4e6d8	0.029895231
6	0xbaeeca17	-0.0018218186
7	0x3d9f66f9	0.07783312
8	0xbb413d0a	-0.0029485845
9	0x3ce98134	0.028503992
10	0xbc41e381	-0.011834026
11	0xbc932971	-0.017964097
12	0xbda32645	-0.07966284
13	0xbd808886	-0.0627604
14	0xbd11f62f	-0.03563517
15	0xbc3ca06a	-0.011512855
16	0x3cf27f2c	0.029601656
17	0x3d44751e	0.047963254
18	0xbd8aad2b	-0.067713104
19	0xbd1cb8c8	-0.03826216
20	0x3cd27cee	0.025694337
21	0x3d9b3171	0.075777896
22	0xbc3f2107	-0.011665589
23	0x3d9427ef	0.07234179
24	0xbbb910f8	-0.005647775
25	0x3c6f1fe0	0.014595002
26	0x3db4c4c7	0.08826595
27	0xbd9a0daa	-0.075221375
28	0xbd489875	-0.04897352
29	0xbca0bd5c	-0.019621544
30	0xbd26506c	-0.04060404
31	0x3d9bf205	0.07614521
32	0xbd854f49	-0.06509263
33	0xbd39f0c1	-0.045395616
34	0xbd88a3e4	-0.06671885
35	0xbdc722f6	-0.09723465
36	0xbd4fd1ee	-0.050737314
37	0x3d91e216	0.071232006
38	0x3d332688	0.04373792
39	0x3d2c16fc	0.042014107
40	0x3c9ef714	0.019404925
41	0xbd23926d	-0.039934564
42	0x3ca1e248	0.01976122
43	0xbd97ecca	-0.07418211
44	0xbd827262	-0.06369473
45	0xbd202faa	-0.039107956
46	0x3d589aa0	0.052881837
47	0x3d3901c2	0.045167692
48	0xbd3a636c	-0.045504972
49	0xbc4009a3	-0.011721048
50	0x3d51064d	0.0510314
51	0x3da1c2fb	0.07898518
52	0x3ce95ba9	0.02848609
53	0x3bb24409	0.0054402393
54	0x3d66deb8	0.056364745
55	0xbd3a9ab2	-0.045557685
56	0x3c85c42c	0.016328894
57	0xbd76bb20	-0.06023705
58	0xbd6605ae	-0.05615776
59	0xbd24f965	-0.040276904
60	0x3d5fb1dd	0.054612983
61	0x3d0e55de	0.034749858
62	0xbd43660f	-0.047704753
63	0x3cb5708d	0.022148395
64	0x3d48ad66	0.04899349
65	0xbcbfb4ad	-0.023401583
66	0x3d0d651f	0.034520265
67	0xbbb69447	-0.0055718753
68	0x3ca6aef9	0.020347105
69	0x3ded11b1	0.1157564
70	0xbd5a99ce	-0.053369336
71	0xbd97eb3d	-0.07417915
72	0x3d8866ee	0.06660257
73	0x3e0f2b8b	0.13981454
74	0x3c8b232a	0.016984541
75	0x3ddca651	0.1077391
76	0x3d59947b	0.053120118
77	0xbde5b2ae	-0.11215721
78	0xbcb3d335	-0.021951297
79	0x3b951c6c	0.0045505073
80	0xbe187daf	-0.14891694
81	0x3d3d5961	0.046227816
82	0x3ddef18c	0.10885915
83	0xbdd1873d	-0.10230873
84	0xbc716c59	-0.014735305
85	0x3c9f43e2	0.019441549
86	0x3c3c266e	0.011483772
87	0xbd9259af	-0.07146012
88	0x3d3d0693	0.046148848
89	0xbd3ffb6d	-0.046870638
90	0x3d368d47	0.044568326
91	0x3c5afe65	0.013366316
92	0x3db646ac	0.08900198
93	0x3d899e93	0.06719699
94	0xbdf26585	-0.118357696
95	0xbd92a18c	-0.07159719
96	0x3dafdf39	0.08587498
97	0xbc5e5b81	-0.013571621
98	0xbe0acc54	-0.13554507
99	0x3c126030	0.008934066
100	0x3d582df7	0.05277821
101	0x3cc2629f	0.023728667
102	0xbb37141b	-0.0027935568
103	0x3c014bcf	0.007891609
104	0xbe12f2f9	-0.14350499
105	0x3d85b329	0.06528313
106	0xbd0c821d	-0.034303773
107	0xbde0ed64	-0.10982779
108	0x3c1dc654	0.009629805
109	0x3d35fff5	0.044433553
110	0xbd900a0d	-0.07033167
111	0x3cd73792	0.026271615
112	0xbcb7ad43	-0.022421485
113	0x3d8a70d4	0.067598015
114	0x3d618509	0.055058513
115	0xbdb13c88	-0.086541235
116	0x3c178254	0.009247381
117	0xbcb43783	-0.021999126
118	0xbcaf8ba2	-0.021428887
119	0x3d55645b	0.05209766
120	0x3d48d857	0.049034443
121	0xbd161613	-0.036642145
122	0xbc33905f	-0.010959714
123	0x3dde437a	0.10852714
124	0xbe138c1b	-0.14408915
125	0xbcb5552d	-0.022135342
126	0x3c5e1c24	0.013556514
127	0xbda0bb28	-0.07848197
128	0xbd793ef3	-0.06085105
129	0xbf344e65	-0.7043212
130	0xbd7d8fb8	-0.06190464
131	0x3c2e78db	0.010648931
132	0xbdbb01e8	-0.09131223
133	0xbd05e5d6	-0.03268989
134	0x3da855a5	0.082194604
135	0xbd18fa78	-0.03734824
136	0x3d031d1e	0.03201019
137	0xbcbc0bde	-0.022954877
138	0x3d1acfc4	0.037795797
139	0x3d97b317	0.074072056
140	0x3d8925ce	0.06696664
141	0x3dab9f0f	0.083799474
142	0x3d642a5c	0.05570446
143	0x3c24ebd4	0.010065991
144	0xbdc707b4	-0.09718266
145	0xbd7ccaba	-0.061716773
146	0x3d9a3c0f	0.075309865
147	0xbcf6da8e	-0.030133512
148	0xbc7d5efd	-0.0154645415
149	0xbdb16e98	-0.08663672
150	0xbd5e1b69	-0.05422536
151	0xbd254f59	-0.040358875
152	0xbc1eb3b0	-0.0096863955
153	0x3dbb4ff4	0.09146109
154	0x3d47305c	0.048630103
155	0xbd2af4fb	-0.041737538
156	0x3d81369f	0.06309246
157	0xbd0f1be2	-0.0349387
158	0x3c1c94e7	0.009556985
159	0xbd60ba29	-0.054865036
160	0x3c39c288	0.011337884
161	0xbd3fe678	-0.04685065
162	0xbd825a46	-0.063648745
163	0xbdc49bcc	-0.096000284
164	0xbd028757	-0.03186735
165	0x3c8ff58f	0.017573146
166	0xbd8b0796	-0.06788556
167	0x3d7a166f	0.06105655
168	0xbdc3f372	-0.09567918
169	0x3c470e18	0.012149356
170	0x3dc77c17	0.09740465
171	0xbd520212	-0.051271506
172	0x3ddf5dc7	0.109065585
173	0x3b6b2040	0.0035877377
174	0xbd76f38d	-0.060290862
175	0x3ce18aa5	0.027531931
176	0xbd34ad1e	-0.04411041
177	0xbd427680	-0.04747629
178	0x3cdf0e77	0.027228577
179	0xbd93d20a	-0.07217796
180	0xbd0a2723	-0.03372873
181	0xbcd9f0e4	-0.026604123
182	0x3cece6ea	0.028918702
183	0xbb6b8dbd	-0.0035942637
184	0x3d7bc9cf	0.061471757
185	0x3b374aa2	0.0027968069
186	0x3c097b6d	0.008391243
187	0xbd0ac27f	-0.033876892
188	0xbd575c28	-0.05257812
189	0x3d86bfe1	0.06579567
190	0x3d5b02d0	0.05346948
191	0x3db47cbe	0.08812855
192	0xbdb84d91	-0.089991696
193	0x3ca6ca72	0.020360205
194	0xbd88cd0a	-0.06679733
195	0xbd019116	-0.031632505
196	0xbd484d8b	-0.048902076
197	0xbd085da0	-0.033292413
198	0xbc2cd03c	-0.010547694
199	0xbc301e33	-0.010749388
200	0xbc47cef3	-0.012195337
201	0x3d843c46	0.06456809
202	0xbd25b4c2	-0.040455587
203	0xbdb39522	-0.08768679
204	0xbd90b961	-0.07066608
205	0x3dfcd325	0.1234496
206	0xbdbf6ec5	-0.093472995
207	0x3dc01d40	0.09380579
208	0x3d71ff17	0.059081163
209	0xbc74f57f	-0.014951109
210	0xbc0abc2e	-0.008467717
211	0xbac56f15	-0.0015063012
212	0x3ca2d223	0.019875592
213	0xbd7e0bad	-0.062022854
214	0x3d8089fd	0.06276319
215	0x3c10b7bb	0.008832867
216	0xbdaf8692	-0.08570589
217	0xbd29a4ae	-0.041416816
218	0x3d93b63a	0.07212491
219	0xbd88a567	-0.06672173
220	0xbcbdb3ca	-0.02315702
221	0x3dad75b4	0.08469716
222	0x3dc2f1e0	0.0951879
223	0xbd217de8	-0.039426714
224	0xbd8a2df5	-0.06747047
225	0x3d73c673	0.059515428
226	0xbd906f56	-0.07052486
227	0xbd5146c2	-0.05109287
228	0xbb1683fc	-0.0022966852
229	0x3bd50d82	0.0065018544
230	0xbd794937	-0.06086084
231	0x3e09abba	0.13444415
232	0xbc0c0ec7	-0.008548445
233	0x3d536c97	0.05161723
234	0x3da3c11d	0.07995818
235	0xbd4400c1	-0.04785228
236	0x3cc13e48	0.023589268
237	0xbd918b9a	-0.07106705
238	0x3b96d748	0.0046033002
239	0xbd198a9b	-0.0374857
240	0x3d00e8e7	0.031472113
241	0x3da9c227	0.08288985
242	0xbd07786a	-0.03307382
243	0xba68ad49	-0.0008875919
244	0x3d2648eb	0.040596884
245	0xbd8be69c	-0.068310946
246	0x3d874883	0.066056274
247	0xbe0b74fe	-0.13618848
248	0x3d30acca	0.043133534
249	0xbcc2f1f8	-0.02379702
250	0xbd7f110c	-0.062272117
251	0x3c9f53c8	0.01944913
252	0x3dca8fe7	0.098907284
253	0xbd590272	-0.052980848
254	0xbd93125b	-0.071812354
255	0x3cefb4b2	0.029260967

bias f4 [64]
0	0xbd9e8291	-0.07739747
1	0x3d31f4e2	0.04344643
2	0x3db24270	0.08704078
3	0x3c6f6075	0.0146103995
4	0xbc1eea82	-0.009699466
5	0xbc9f1f99	-0.019424247
6	0x3d17e8d5	0.03708728
7	0x3ba461b8	0.005016532
8	0xbd1b081a	-0.037849523
9	0x3d809334	0.06278077
10	0x3d8017ef	0.06254565
11	0x3d81ce4a	0.06338175
12	0x3d8d2b6c	0.06893048
13	0xbd38d9f8	-0.045129746
14	0x3d970a9b	0.0737507
15	0x3c1d36ac	0.009595554
16	0xbda639f5	-0.08116523
17	0x3d4af676	0.04955145
18	0xbd663b17	-0.056208696
19	0xbd4cf04b	-0.05003385
20	0x3c07e368	0.008293964
21	0x3d85b112	0.06527914
22	0x3b79266c	0.0038017286
23	0xbda92fdf	-0.08261084
24	0xbd7353ca	-0.05940608
25	0x3d395b17	0.045252886
26	0xbc42508a	-0.011860022
27	0x3d049cec	0.032376215
28	0x3da594f5	0.08085052
29	0xbd3ed87b	-0.04659317
30	0xbdb429af	-0.08797013
31	0xbcadff90	-0.021240026
32	0xba87d182	-0.0010362121
33	0xbc56c98f	-0.013109579
34	0x3db455e4	0.08805445
35	0xbd78f5f8	-0.06078145
36	0x3d5ae5dd	0.05344187
37	0x3c158d1d	0.009127882
38	0x3db3a76e	0.08772169
39	0xbdaea9c1	-0.08528472
40	0x3d4837bc	0.048881277
41	0xbd488af7	-0.048960652
42	0xbd0dc6f4	-0.034613565
43	0x3c11bdd0	0.0088953525
44	0x3d27de33	0.04098339
45	0x3d291a18	0.04128465
46	0xbd63069b	-0.05542622
47	0x3c3d15d9	0.011540853
48	0xbc43eafd	-0.011957881
49	0x3b7bdf98	0.0038432833
50	0xbb116601	-0.0022186043
51	0xbb4e677f	-0.0031494794
52	0x3d41bd5e	0.047299735
53	0x3d8e1346	0.0693727
54	0x3d48d70d	0.049033213
55	0xbd0d48d1	-0.03449327
56	0x3a76d40f	0.00094157545
57	0xbb64a051	-0.0034885595
58	0xbd4a5149	-0.049393926
59	0x3d8ad255	0.06778399
60	0x3d0defa1	0.034652356
61	0x3d0a8d16	0.033825956
62	0x3dac5c77	0.08416074
63	0xbc66663e	-0.014062462

weight f4 [16]
0	0x3f7faaee	0.99870193
1	0x3f84de6b	1.0380377
2	0x3f6f5460	0.9348812
3	0x3f834189	1.0254375
4	0x3f823e7e	1.0175321
5	0x3f80df09	1.0068065
6	0x3f7e14c5	0.9925044
7	0x3f78a14c	0.9712112
8	0x3f8286b7	1.0197362
9	0x3f8039dd	1.0017658
10	0x3f83197f	1.0242156
11	0x3f809070	1.0044079
12	0x3f8394bf	1.0279769
13	0x3f83ac9a	1.0287049
14	0x3f80284c	1.0012298
15	0x3f6ca664	0.9244139

bias f4 [16]
0	0xbc463350	-0.012097195
1	0x3c9da845	0.019245276
2	0x3d869102	0.06570627
3	0xbc6a8b4e	-0.014315439
4	0xbb052007	-0.002031328
5	0x3d4623fe	0.04837417
6	0xbbc81c9c	-0.006106926
7	0x3cce5f43	0.025191909
8	0x3d12205e	0.0356754
9	0xbcb8b3de	-0.022546705
10	0x3d501bdc	0.05080782
11	0x3c154998	0.009111784
12	0x3cd9aea4	0.026572533
13	0xbcc7672c	-0.024341188
14	0xbacb9d97	-0.0015534636
15	0x3c546eab	0.012965838

weight f4 [64]
0	0x3f83565b	1.0260729
1	0x3f7d4713	0.98936576
2	0x3f80e85e	1.0070913
3	0x3f7c52d6	0.985639
4	0x3f801a6b	1.0008062
5	0x3f7357b6	0.9505571
6	0x3f809e25	1.0048262
7	0x3f654c12	0.895692
8	0x3f795510	0.9739542
9	0x3f84d9d9	1.0378982
10	0x3f80d649	1.0065395
11	0x3f6a5b30	0.9154539
12	0x3f7f9fc5	0.99853164
13	0x3f80c244	1.0059285
14	0x3f77b36a	0.9675814
15	0x3f79bb79	0.97551686
16	0x3f860b38	1.0472174
17	0x3f76b13a	0.96364176
18	0x3f69e5c1	0.913662
19	0x3f7b734f	0.9822282
20	0x3f7b36a9	0.9813028
21	0x3f62cb19	0.8859115
22	0x3f8075a7	1.0035905
23	0x3f839a94	1.0281549
24	0x3f7ff7ed	0.9998768
25	0x3f7f4603	0.99716204
26	0x3f77c346	0.9678234
27	0x3f827e60	1.0194817
28	0x3f8000de	1.0000265
29	0x3f7ee547	0.995686
30	0x3f819beb	1.0125707
31	0x3f855c8a	1.0418866
32	0x3f7a50cf	0.97779554
33	0x3f804cde	1.0023458
34	0x3f8171ca	1.0112851
35	0x3f81d686	1.0143592
36	0x3f822be1	1.0169641
37	0x3f7a6652	0.9781238
38	0x3f7a346f	0.9773626
39	0x3f7faab9	0.9986988
40	0x3f78bea0	0.9716587
41	0x3f763e29	0.961886
42	0x3f785705	0.9700778
43	0x3f837e43	1.0272907
44	0x3f788529	0.97078186
45	0x3f712913	0.942033
46	0x3f7d616d	0.98976785
47	0x3f7627ce	0.9615449
48	0x3f7a0a0a	0.9767157
49	0x3f72f50e	0.94905174
50	0x3f78101b	0.96899575
51	0x3f82f344	1.0230489
52	0x3f6dc765	0.92882377
53	0x3f76d5db	0.9642007
54	0x3f80c80e	1.0061052
55	0x3f81a622	1.0128825
56	0x3f77ef0d	0.9684914
57	0x3f791ed0	0.9731264
58	0x3f7b0d4a	0.9806715
59	0x3f839084	1.0278478
60	0x3f7b9b79	0.9828411
61	0x3f8b027e	1.0860136
62	0x3f7b8c6f	0.9826116
63	0x3f7f440b	0.997132

bias f4 [64]
0	0xbc97edec	-0.018546067
1	0xbc394d0b	-0.011309872
2	0x3c7d5b7c	0.015463706
3	0xbca3d174	-0.019997336
4	0x3aac7434	0.001315719
5	0xbc6e4c96	-0.014544627
6	0xbc6afdeb	-0.014342765
7	0x3cdcf00d	0.026969934
8	0xbbd2940a	-0.006426339
9	0x3b7cf64c	0.0038598953
10	0xbcb28567	-0.021792127
11	0xbc81aca8	-0.0158294
12	0xbae9debb	-0.0017842868
13	0xbcac3ed7	-0.021026058
14	0x3c6f06fd	0.0145890685
15	0xbcfc2f89	-0.030784385
16	0xbbf7eef1	-0.007566326
17	0x3ca1df2d	0.019759739
18	0x3d1d9cba	0.038479544
19	0xbc9b0243	-0.018921977
20	0xbbb07b6c	-0.005385807
21	0xbbb5ac66	-0.005544233
22	0x3b94c90d	0.0045405687
23	0xbceb08a0	-0.028690636
24	0x3bf4fcb3	0.007476413
25	0x3cfd957f	0.030955074
26	0x3cf820ee	0.03028914
27	0x3b5af82e	0.0033412087
28	0x3bf4a050	0.0074654
29	0x3ca38379	0.019960152
30	0xbb3fb13a	-0.0029249922
31	0x3b69ab05	0.0035654914
32	0x386bdf8d	5.6236564e-05
33	0x3cd801ad	0.026367987
34	0x3d5bac48	0.053631097
35	0xbca335a6	-0.019923043
36	0xbc23257e	-0.009957669
37	0xbd3de713	-0.046362948
38	0xbc1a2c3c	-0.00940996
39	0x3cc3b125	0.02388818
40	0xbd51698f	-0.05112606
41	0x3ca3f862	0.0200159
42	0x3c683839	0.014173561
43	0xbd00c431	-0.031437103
44	0xbc36348c	-0.011120927
45	0x3cacaa0a	0.021077175
46	0x3c4a552c	0.012349408
47	0x3a86180a	0.0010230553
48	0x3be18b74	0.006883079
49	0xbc433979	-0.011915558
50	0xbc512bce	-0.0127667915
51	0x3c103d72	0.008803712
52	0xbcb61591	-0.02222708
53	0xba4b81e9	-0.00077631936
54	0x3ca9d3bb	0.020730844
55	0xbb362657	-0.0027793848
56	0x3c42bdb0	0.011886045
57	0x3ba6c92e	0.0050899005
58	0x3bcc3ccb	0.006232833
59	0xbcf79822	-0.03022391
60	0xbc981c05	-0.018568048
61	0xbc0f4dc9	-0.008746573
62	0xbd8d81a8	-0.069094956
63	0x3c855df9	0.016280161

q_proj_weight f4 [16, 16]
0	0x3e466c38	0.1937722
1	0xbe325c99	-0.17418136
2	0xbd9bfed5	-0.07616965
3	0xbdf5310b	-0.11972245
4	0x3e747871	0.2387407
5	0x3ec38322	0.38185984
6	0x3bd7b31f	0.006582632
7	0xbbd7eb43	-0.0065893247
8	0xbd189a3e	-0.03725647
9	0x3e3debdf	0.18547009
10	0x3ea0511f	0.3131189
11	0x3e1362dd	0.14393182
12	0x3e88d366	0.26723784
13	0xbe14e01d	-0.14538617
14	0xbcc026ad	-0.023455942
15	0xbeb23986	-0.34809512
16	0x3e290822	0.16507009
17	0xbe4edfb5	-0.20202525
18	0xbd86be46	-0.065792605
19	0xbedc81fa	-0.43067914
20	0xbba1d883	-0.0049391403
21	0x3e013e7f	0.12621497
22	0x3ea217c5	0.3165876
23	0xbd77be7e	-0.060484402
24	0x3d2ddec1	0.042448763
25	0x3ee437a3	0.44573697
26	0x3b1e4223	0.0024148307
27	0x3e993704	0.29924786
28	0x3ec8363a	0.39103872
29	0x3eb3d345	0.35122123
30	0x3e65ed41	0.22453786
31	0x3e96159e	0.29313368
32	0x3eae3f4b	0.34032664
33	0xbc86fdb3	-0.016478395
34	0x3ebb3079	0.3656042
35	0xbe635511	-0.22200419
36	0xbdf44fd9	-0.11929292
37	0x3e76b05d	0.24090715
38	0xbe8ec901	-0.2788773
39	0xbe196be9	-0.1498257
40	0x3d82c0e3	0.063844465
41	0xbc613b5e	-0.013747064
42	0x3d8c6412	0.068550244
43	0xbd0c2081	-0.034210686
44	0x3e209554	0.15681964
45	0x3ebbb3d2	0.3666063
46	0xbe365a6b	-0.17807929
47	0x3e693fa0	0.22778177
48	0x3e26af05	0.16277702
49	0x3e8f22b8	0.27956176
50	0x3eb7a218	0.35865855
51	0xbc472ea8	-0.01215712
52	0xbe05adc2	-0.13054565
53	0xbe473205	-0.19452675
54	0xbdd8ac17	-0.105796985
55	0xbe3d9cd8	-0.18516862
56	0xbe1cca85	-0.1531163
57	0x3ea12407	0.314728
58	0x3d53757f	0.051625725
59	0xbe4afd91	-0.1982329
60	0x3e52a1a0	0.20569468
61	0x3d37cb94	0.04487188
62	0x3d9d36ae	0.07676445
63	0x3e3599c7	0.17734443
64	0xbe898495	-0.26858965
65	0xbd00a795	-0.03140982
66	0x3ead8bf6	0.33895844
67	0x3e704359	0.23463191
68	0x3e84ca03	0.25935373
69	0xbd287824	-0.0411302
70	0x3d307e1b	0.043089014
71	0x3e89ba5c	0.26899993
72	0x3dde1f78	0.10845846
73	0x3e43affc	0.19110101
74	0x3e80ea2e	0.25178665
75	0x3e56bf87	0.209715
76	0x3e62d340	0.22150898
77	0xbe9eb960	-0.31000805
78	0xbed49f17	-0.41527626
79	0xbed4e4a2	-0.41580683
80	0x3ea0b66d	0.3138918
81	0xbe56757a	-0.20943251
82	0xbea4592d	-0.32099286
83	0x3cd4154f	0.025889067
84	0xbe00f6dc	-0.1259417
85	0x3e0fa7d7	0.1402887
86	0xbdaa6832	-0.08320655
87	0x3eb794fd	0.35855857
88	0xbec44331	-0.38332513
89	0xbed84cc3	-0.42246065
90	0x3ec47d72	0.38376957
91	0xbe41689c	-0.18887562
92	0x3dc974da	0.09836741
93	0x3e09c1c4	0.13452822
94	0x3daf620b	0.08563622
95	0xbe8a1723	-0.26970777
96	0x3cffc7f2	0.031223271
97	0xbe8fdb3b	-0.28096947
98	0x3eb8e03a	0.3610857
99	0x3d78584d	0.060631085
100	0x3eab0f54	0.33410132
101	0x3ea098fd	0.3136672
102	0x3e142dcc	0.14470595
103	0x3e20b550	0.15694165
104	0x3e85d4ef	0.26139018
105	0xbe9d431c	-0.30715263
106	0x3ebe2863	0.37140188
107	0xbddd43d9	-0.108039565
108	0x3ec39607	0.382004
109	0xbc7579ba	-0.014982635
110	0x3e227440	0.15864658
111	0x3e95a86e	0.29230064
112	0x3d8cf2c8	0.06882244
113	0xbde88f7c	-0.113554925
114	0x3e29f7e1	0.16598465
115	0xbedc6c7e	-0.43051523
116	0x3c9c0cdf	0.019049106
117	0xbd7c27a9	-0.06156126
118	0xbeb2dc82	-0.3493386
119	0xbd1a5ae6	-0.037684344
120	0x3df4c607	0.11951833
121	0xbee3dfd8	-0.44506717
122	0x3ec781c1	0.38966182
123	0x3e6c3c71	0.23069932
124	0x3eecadc3	0.4622632
125	0xbe2a9914	-0.16659957
126	0xbeb7cdbc	-0.3589915
127	0x3e7f4960	0.24930334
128	0x3eddff9c	0.43359077
129	0xbe562e0d	-0.20916004
130	0xbe6fb248	-0.23407853
131	0xbd064607	-0.032781627
132	0x3ea5ffb9	0.32421663
133	0xbd15615a	-0.036469795
134	0xbec31165	-0.38099208
135	0xbe47c84d	-0.19510002
136	0xbe92ac09	-0.28646877
137	0x3ec4a3f0	0.38406324
138	0xbebbb9ea	-0.3666528
139	0x3eb4abe9	0.35287407
140	0x3de69329	0.11258537
141	0xbd930d6e	-0.07180296
142	0xbd600707	-0.0546942
143	0x3e51a315	0.20472367
144	0xbe2a8cfb	-0.16655342
145	0xbe1e9b1c	-0.15488857
146	0x3ea1767c	0.3153571
147	0xbdf83ccc	-0.12120971
148	0x3c308101	0.010772944
149	0x3ec2e7bc	0.38067424
150	0xbe913638	-0.28361678
151	0x3d6a496f	0.057198938
152	0xbd240820	-0.04004681
153	0xbe10b057	-0.14129768
154	0x3e93c3e3	0.28860387
155	0x3e7fa70b	0.24966066
156	0xbd759c57	-0.05996355
157	0xbcd387f4	-0.025821663
158	0x3eaf1d48	0.34202027
159	0xbdf366e6	-0.11884861
160	0x3e7630db	0.24042074
161	0xbe9b2644	-0.30302632
162	0xbec281b1	-0.37989572
163	0x3e9c7f31	0.3056579
164	0x3e9617dd	0.2931508
165	0xbeb092ea	-0.34487087
166	0xbdb15f56	-0.08660762
167	0x3e3fba6f	0.18723463
168	0x3e6b4736	0.22976384
169	0x3e81d8cd	0.25360718
170	0x3e9e7d66	0.30955046
171	0xbe84b385	-0.25918213
172	0x3dd80f00	0.10549736
173	0x3ecdfd9d	0.40232554
174	0xbeb501af	-0.35352847
175	0x3e9830ff	0.2972488
176	0x3e081ef1	0.13293053
177	0x3d0ddcef	0.034634527
178	0x3ecf5ec5	0.4050199
179	0xbe05a514	-0.13051254
180	0xbe4a061f	-0.19728898
181	0xbeb8da18	-0.36103892
182	0x3edb3f9e	0.42821974
183	0xbe84d9c0	-0.2594738
184	0x3eadab3c	0.33919704
185	0xbe8338ec	-0.25629365
186	0x3e373876	0.17892632
187	0xbe653282	-0.22382548
188	0x3ea8ce95	0.3297011
189	0xbe845072	-0.25842625
190	0xbe4d9f6b	-0.20080344
191	0xbd821aab	-0.06352743
192	0xbedf3a36	-0.435991
193	0x3f001fbb	0.50048417
194	0x3de31e40	0.11089754
195	0xbeb75d05	-0.35813156
196	0xbebd0d85	-0.36924377
197	0xbd4d4a7b	-0.05011986
198	0x3e10b7a6	0.14132556
199	0xbdb98420	-0.09058404
200	0x3eb07a6a	0.34468395
201	0xbe4ed4ca	-0.2019836
202	0x3e3680b9	0.17822541
203	0x3e992c1b	0.29916462
204	0xbea54f46	-0.32287043
205	0xbee0b5e1	-0.43888763
206	0xbec861af	-0.39137027
207	0x3dd99aef	0.10625254
208	0x3ee52864	0.44757378
209	0xbea15cca	-0.31516105
210	0xbd8dada2	-0.069178835
211	0x3ea63571	0.32462648
212	0x3eab14ec	0.334144
213	0x3e5eacf7	0.21745668
214	0x3e0114aa	0.12605539
215	0xbd8a1cbe	-0.067437634
216	0xbd342478	-0.04398009
217	0x3ed0deef	0.40795085
218	0xbd0a4db1	-0.0337655
219	0x3e0b0688	0.1357671
220	0xbd13962a	-0.03603188
221	0x3ec1d255	0.37855783
222	0xbec4ea19	-0.38459852
223	0xbddaa840	-0.106766224
224	0xbec97c8f	-0.39352843
225	0x3e0260b3	0.127322
226	0xbdc4761d	-0.09592841
227	0xbeb6b7b4	-0.3568703
228	0xbead13c6	-0.33804148
229	0x3ddd9622	0.10819651
230	0x3ea99b9f	0.33126542
231	0x3eae94fd	0.34098044
232	0x3e952946	0.29133052
233	0xbea3f404	-0.32022107
234	0x3eb05baf	0.3444495
235	0x3ed15fe6	0.40893477
236	0xbb1ad40f	-0.0023624932
237	0xbedb85ac	-0.4287542
238	0xbe9d6622	-0.30741984
239	0xbeb431b6	-0.35194176
240	0x3d11c3d2	0.03558714
241	0x3ecbcad7	0.39803192
242	0x3e6ea145	0.23303707
243	0xbe80598d	-0.25068322
244	0xbe57d502	-0.2107735
245	0x3e43216d	0.1905572
246	0xbe446e2e	-0.19182655
247	0xbc12452c	-0.008927625
248	0x3e1c7b40	0.15281391
249	0xbe188eb8	-0.14898193
250	0x3e264cce	0.16240236
251	0xbd7a285b	-0.061073642
252	0x3ecbbbd8	0.3979175
253	0xbeca203d	-0.3947772
254	0x3ebc65d9	0.36796454
255	0x3e8a5719	0.27019575

k_proj_weight f4 [16, 64]
0	0xbe86d3d9	-0.26333502
1	0x3d4939cf	0.049127396
2	0xbd706841	-0.058693174
3	0x3e4e2ca4	0.20134217
4	0x3e1f0d9d	0.15532537
5	0xbe0d1154	-0.13776141
6	0xbe10b359	-0.14130916
7	0xbe38c22e	-0.18042824
8	0x3e2c0eb4	0.16802484
9	0xbea7e6b4	-0.327932
10	0xbe092c82	-0.13395885
11	0x3e47ef1d	0.19524808
12	0x3d840414	0.0644609
13	0x3e09f8d5	0.13473828
14	0x3e4deda2	0.20110181
15	0xbe63e5a2	-0.22255567
16	0x3c8e5a79	0.017377125
17	0xbd30db68	-0.043177992
18	0x3ea6b1f9	0.32557657
19	0xbda7ba30	-0.08189809
20	0x3cf56ce6	0.029959153
21	0x3e2bceae	0.16778061
22	0x3e2b8683	0.16750531
23	0xbe442d16	-0.19157824
24	0xbe821099	-0.25403288
25	0xbe1b1bb5	-0.15147288
26	0x3def0a4b	0.11671885
27	0x3e64109e	0.22271964
28	0x3e153ead	0.1457469
29	0x3e10a009	0.14123549
30	0x3e17f1b9	0.14838304
31	0xbcb4e778	-0.02208303
32	0xbd1332b4	-0.035937026
33	0x3e56c8c6	0.20975026
34	0xbdb3fe87	-0.087887816
35	0x3c436d90	0.011927977
36	0x3e4957e2	0.19662431
37	0x3e839165	0.25696865
38	0x3db7d3a4	0.08975914
39	0xbdd9e7c0	-0.10639906
40	0xbdc7aec2	-0.09750129
41	0xbe38be0f	-0.18041252
42	0xbe1c8d76	-0.15288338
43	0x3e85d717	0.26140663
44	0x3e1ac7d0	0.15115285
45	0xbe4b2c1e	-0.19841048
46	0x3e63a2a2	0.22230008
47	0xbd589fcd	-0.052886773
48	0xbd06df28	-0.032927662
49	0x3e05f949	0.13083376
50	0xbe4325a8	-0.19057333
51	0xbe40dd1f	-0.18834351
52	0xbd7ec017	-0.06219491
53	0xbd7ae412	-0.06125266
54	0x3d6a6e96	0.05723437
55	0xbdc7c14b	-0.097536646
56	0xbe0c7350	-0.13715863
57	0xbe7e21e0	-0.2481761
58	0x3e83912f	0.25696704
59	0x3e2c48e7	0.16824685
60	0xbe70842d	-0.23487921
61	0xbea7d483	-0.3277932
62	0xbdfdb15b	-0.123873435
63	0x3e856c35	0.26059118
64	0x3e0e956e	0.1392419
65	0x3daed7aa	0.085372284
66	0x3e2d28e9	0.16910137
67	0x3c59a2a4	0.013283405
68	0x3e681215	0.22663148
69	0xbe4fbe8f	-0.20287536
70	0x3e434761	0.19070198
71	0x3df0f1c4	0.11764863
72	0x3e005bb6	0.12534985
73	0x3e6f3e67	0.23363648
74	0xbdc829c0	-0.09773588
75	0xbe1c6304	-0.15272146
76	0xbd9bfebb	-0.07616945
77	0xbe4907ce	-0.19631884
78	0x3d03b3a1	0.03215373
79	0x3e02ecd5	0.12785657
80	0x3d0d2a46	0.034464143
81	0x3cbf6874	0.023365237
82	0x3dd13aba	0.10216279
83	0xbe89ddf0	-0.26927137
84	0xbe3a7b4e	-0.182111
85	0xbe6697a3	-0.22518782
86	0x3e8cc029	0.27490357
87	0xbe898dd7	-0.26866028
88	0x3df15db1	0.11785448
89	0x3e46b402	0.19404605
90	0xbdaf279c	-0.08552477
91	0xbcd8a6c1	-0.026446702
92	0x3e6b722e	0.22992775
93	0xbe51da45	-0.2049342
94	0xbea01c3b	-0.31271538
95	0xbd13159d	-0.035909284
96	0xbcf52c8d	-0.02992847
97	0xbdab4ea5	-0.0836461
98	0x3d7e1e34	0.062040523
99	0x3e12aed5	0.14324506
100	0x3dfc9b02	0.12334253
101	0x3ca21575	0.019785622
102	0x3e3bb10f	0.18329261
103	0xbdb2e7a2	-0.08735587
104	0x3b9b9ace	0.0047486788
105	0x3deb04f4	0.11475554
106	0x3dc62816	0.096756145
107	0xbddd45f3	-0.108043574
108	0x3e5411bd	0.20709892
109	0xbe3b37d3	-0.18283014
110	0xbde9e3ce	-0.114204034
111	0xbe72013f	-0.23633288
112	0x3d0785e4	0.033086672
113	0xbe8a1e82	-0.269764
114	0x3e198e2d	0.14995642
115	0xbe13b85a	-0.14425793
116	0x3dd26ad8	0.10274285
117	0x3e6a6486	0.22889909
118	0x3e82b8b8	0.25531554
119	0x3dd5c513	0.104379795
120	0x3dcf2ccc	0.10115966
121	0x3d8a9039	0.067657895
122	0x3e2454b2	0.16047934
123	0xbce93128	-0.028465822
124	0xbe7cc176	-0.24683174
125	0x3e836ce5	0.25669017
126	0xbe6e344f	-0.23262142
127	0x3e8a226c	0.26979387
128	0xbd656c3e	-0.05601143
129	0x3d902c36	0.070396826
130	0x3b748c7c	0.003731518
131	0x3e883f5f	0.26610848
132	0x3e037fd4	0.12841731
133	0xbe5779b8	-0.21042526
134	0x3e249350	0.1607182
135	0xbdaece6b	-0.08535465
136	0xbe9291c2	-0.2862683
137	0xbe857ca2	-0.2607165
138	0x3d464265	0.048403163
139	0x3e160bfd	0.1465301
140	0xbed17ad5	-0.40914026
141	0x3cdfc950	0.027317673
142	0x3db6a3ec	0.08917984
143	0xbe66dbc3	-0.2254477
144	0x3e03c176	0.12866768
145	0xbe0d77af	-0.13815187
146	0x3dbd249b	0.092354976
147	0xbdfdf0f3	-0.12399473
148	0x3e79c4c5	0.24391468
149	0xbe5a7312	-0.21332958
150	0x3e40688e	0.18789884
151	0xbe13b2a1	-0.1442361
152	0x3d0a9f28	0.03384319
153	0xbc3ffc4d	-0.011717868
154	0xbe42e14e	-0.1903126
155	0xbe0e5c9c	-0.13902515
156	0x3d006259	0.03134379
157	0x3a191f55	0.00058411557
158	0xbdc4daee	-0.0961207
159	0x3e5790a8	0.21051276
160	0xbdc90044	-0.09814504
161	0xbe19a534	-0.15004426
162	0x3c9c7b88	0.019101873
163	0xbd81b314	-0.063329846
164	0x3dee9165	0.116488256
165	0x3e678d4f	0.22612499
166	0xbda45953	-0.0802485
167	0x3c237111	0.009975688
168	0x3e78fd07	0.24315272
169	0x3cb26a8d	0.021779323
170	0x3e5530f3	0.20819454
171	0x3e0d2b05	0.13785942
172	0x3db2be16	0.08727662
173	0x3e2001f0	0.15625739
174	0x3e1d069a	0.1533455
175	0x3dfc5f34	0.12322846
176	0x3e3777ca	0.1791679
177	0x3e304b7b	0.17216294
178	0x3c5e7981	0.0135787735
179	0x3d2272a5	0.039660115
180	0xbda89ff6	-0.08233635
181	0x3cecc3d9	0.028901981
182	0x3d332af0	0.04374212
183	0xbcaaf3df	-0.02086824
184	0xbce150fe	-0.02750444
185	0x3d1e4229	0.038637314
186	0xbc886fb6	-0.01665483
187	0x3d4361a2	0.04770053
188	0xbd2b56cb	-0.04183082
189	0xbdc24dee	-0.0948752
190	0xbc6dde58	-0.014518343
191	0x3e7fa18f	0.24963973
192	0xbe46b7d7	-0.19406067
193	0xbe8d29b6	-0.27570885
194	0xbc05e2f4	-0.008171786
195	0x3acc9688	0.0015608827
196	0x3e743c93	0.23851232
197	0x3dbf0d6f	0.09328734
198	0xbcf3ccaa	-0.029760677
199	0xbe8dd5f6	-0.27702302
200	0xbdd4db55	-0.10393397
201	0x3e8151a6	0.25257605
202	0xbdc4b685	-0.09605125
203	0xbdf9460d	-0.12171564
204	0x3d030913	0.031991076
205	0x3e5b2493	0.2140067
206	0x3d24d9b1	0.04024667
207	0x3e638463	0.2221847
208	0x3e50790a	0.20358673
209	0x3bd7d927	0.006587166
210	0x3e489097	0.19586407
211	0x3d9c0925	0.07618932
212	0x3d35ffe4	0.04443349
213	0x3c82ef3c	0.015983216
214	0xbe5a9524	-0.21345955
215	0x3dce057d	0.100596406
216	0x3e6405a7	0.22267781
217	0x3da1a885	0.07893471
218	0x3d61e58f	0.055150565
219	0x3cdce0eb	0.026962718
220	0xbe710548	-0.23537171
221	0x3d649c4c	0.05581312
222	0x3d67d61e	0.056600682
223	0x3db1a929	0.08674843
224	0x3e7cf155	0.24701436
225	0xbe0b61ec	-0.13611573
226	0x3ea6416b	0.32471785
227	0xbc7f1edd	-0.015571323
228	0xbdcbc49a	-0.09949608
229	0xbe24d5c5	-0.16097172
230	0xbe22512e	-0.1585128
231	0x3dd04ee7	0.101712994
232	0xbd67fcd4	-0.0566376
233	0x3da660ae	0.08123909
234	0xbe915801	-0.28387454
235	0xbdec2f06	-0.115324065
236	0x3e1bad66	0.15202865
237	0xbdceea37	-0.10103267
238	0x3e7abe0e	0.24486563
239	0xbdc72e0d	-0.0972558
240	0xbe4b0148	-0.19824708
241	0x3d86b26a	0.065769985
242	0x3e282c1a	0.16423073
243	0x3e165d00	0.14683914
244	0x3e6bfbb4	0.23045236
245	0xbe3b144f	-0.18269466
246	0x3de3bd3a	0.111200765
247	0x3d4944eb	0.04913799
248	0xbe292c70	-0.16520858
249	0x3cba99a9	0.022778349
250	0x3ddf16f7	0.10893052
251	0xbe8a8142	-0.2705174
252	0xbda47357	-0.08029812
253	0x3e3686c0	0.1782484
254	0x3e7a8eb8	0.24468505
255	0xbe6b8ac5	-0.23002155

v_proj_weight f4 [16, 64]
0	0xbd1ea2a1	-0.038729314
1	0x3e60a70b	0.21938722
2	0x3e620171	0.22070862
3	0x3d8e6308	0.069524825
4	0xbe5c9c12	-0.21543911
5	0x3e803de6	0.25047225
6	0xbe72bb12	-0.23704174
7	0xbe5220ee	-0.20520374
8	0x3d4722bb	0.048617106
9	0xbd8f90c2	-0.07010032
10	0xbe6a9844	-0.22909647
11	0x3e28b0b4	0.16473657
12	0x3d11c533	0.035588454
13	0xbc43d659	-0.01195296
14	0x3dbb29c0	0.091388226
15	0x3e48b885	0.19601639
16	0xbcc5d641	-0.024150016
17	0x3e43a295	0.19104989
18	0x3e1d6b07	0.15372859
19	0x3d6b598d	0.05745845
20	0xbe0a87df	-0.13528393
21	0xbe4969a0	-0.19669199
22	0xbc84c0d6	-0.016205233
23	0xbd90bf7b	-0.07067772
24	0xbe64d311	-0.2234614
25	0xbe804613	-0.25053462
26	0xbe334b23	-0.17509131
27	0xbc7a3c4f	-0.015273168
28	0xbde8e55a	-0.1137187
29	0xbe6519d3	-0.22373132
30	0xbd2fcfb8	-0.042922705
31	0xbe032d38	-0.12810218
32	0xbd968c46	-0.07350974
33	0x3e1a4b0d	0.15067692
34	0x3e1c3ae6	0.15256843
35	0x3e3ce63f	0.18447207
36	0x3e7c6477	0.246477
37	0x3b593003	0.003314019
38	0xbe140a00	-0.1445694
39	0xbcd6d36c	-0.02622386
40	0x3d3ede15	0.046598513
41	0xbdb9bfec	-0.09069809
42	0x3e502d97	0.20329891
43	0x3e1f4c3d	0.15556426
44	0xbe5040cc	-0.20337218
45	0x3d2a0207	0.04150584
46	0x3c871ee3	0.01649422
47	0x3daa66ed	0.08320413
48	0xbe1f4093	-0.15551977
49	0x3e812a79	0.25227717
50	0xbd98587b	-0.07438751
51	0x3dcd1feb	0.100158535
52	0xbe109954	-0.1412099
53	0x3da95b06	0.082693145
54	0xbddb4c97	-0.10707968
55	0xbe228d45	-0.15874203
56	0xbe3c991b	-0.1841778
57	0x3dd22dd2	0.10262646
58	0x3d28e2ca	0.041231908
59	0x3dbe9a6a	0.09306796
60	0xbe1c58f4	-0.15268308
61	0x3d8f3e28	0.06994277
62	0xbdf44606	-0.119274184
63	0x3d7e9f9a	0.062163927
64	0x3e839745	0.25701347
65	0xbe6b31d3	-0.22968225
66	0x3dd1902b	0.10232576
67	0xbe3a0ba3	-0.18168502
68	0x3dbf2d39	0.093347974
69	0xbd9bf0d0	-0.07614291
70	0x3e0c40f1	0.13696648
71	0xbe0bbf7e	-0.13647267
72	0x3e40b1ac	0.18817776
73	0x3e398f77	0.18121134
74	0xbe295583	-0.16536526
75	0xbe53bc1a	-0.20677224
76	0x3e30438f	0.17213272
77	0xbdaac9a2	-0.0833924
78	0x3dca8f93	0.09890666
79	0xbe07c936	-0.1326035
80	0xbe832fcf	-0.25622413
81	0x3d89847b	0.06714722
82	0xbdd95411	-0.106117375
83	0xbe301720	-0.17196321
84	0x3d9e3821	0.077255495
85	0x3dc47e24	0.09594372
86	0x3e6115dc	0.21980995
87	0x3e849093	0.2589155
88	0x3dc9c311	0.09851659
89	0xbd93cc78	-0.07216734
90	0xbd524ef4	-0.051344827
91	0x3e4259f2	0.18979624
92	0xbe6408a8	-0.22268927
93	0x3e396c2c	0.1810767
94	0x3dfd825e	0.12378381
95	0x3dca7ee2	0.09887482
96	0x3d917131	0.07101668
97	0xbe623e73	-0.22094135
98	0x3de21ed9	0.1104104
99	0xbcce9268	-0.025216296
100	0x3b23b76c	0.0024981154
101	0xbe1ecc83	-0.15507703
102	0x3e434b5d	0.19071718
103	0xbd61c499	-0.05511913
104	0xbbf0dd4d	-0.0073506
105	0xbe61e782	-0.2206097
106	0x3e51819c	0.20459598
107	0xbe70e4f4	-0.23524839
108	0x3e2836a6	0.16427097
109	0x3e0f0cf1	0.1396978
110	0x3cb63971	0.022244187
111	0xbe8d2c72	-0.27572972
112	0xbd98c52b	-0.07459482
113	0xbd0fce84	-0.035109058
114	0xbe2d81d4	-0.16944057
115	0xbdacb7d7	-0.08433502
116	0xbd406698	-0.04697284
117	0xbd99c08e	-0.0750743
118	0x3e337dec	0.17528504
119	0x3e783d14	0.2424205
120	0xbd8f603c	-0.07000777
121	0x3dffdc5e	0.124932036
122	0x3be8ee7e	0.0071085086
123	0x3e42fb13	0.1904109
124	0xbe7bd74d	-0.2459385
125	0xbe04ed21	-0.12981082
126	0xbd268713	-0.04065616
127	0x3e4cbdaf	0.19994234
128	0x3e710fac	0.23541135
129	0xbd60566d	-0.054769922
130	0xbe33fdf5	-0.17577346
131	0xbde9e11c	-0.11419889
132	0xba4f6f2d	-0.000791299
133	0x3d8164da	0.06318064
134	0xbe15ec8d	-0.14641018
135	0x3d51a214	0.05117996
136	0xbcd20c3e	-0.025640603
137	0x3e2fd27e	0.1717014
138	0xbdb8179c	-0.08988878
139	0xbe1b1e5a	-0.15148297
140	0x3b8132e3	0.0039428337
141	0xbc8b1001	-0.016975405
142	0x3e0369a4	0.12833267
143	0x3e688c56	0.22709784
144	0xbdb599b3	-0.088672064
145	0x3e408320	0.1880002
146	0x3df2f044	0.11862233
147	0x3e80b660	0.2513914
148	0x3da6c277	0.0814256
149	0xbc9bd37a	-0.019021738
150	0x3bc641f5	0.006050343
151	0x3cfb7fd2	0.030700598
152	0xbe4d8545	-0.2007037
153	0xbdcc0537	-0.09961932
154	0x3e5036db	0.20333426
155	0x3c9c89b1	0.019108625
156	0x3d9d974e	0.07694875
157	0x3d8c48d8	0.06849831
158	0x3d85b6ec	0.0652903
159	0xbe1e40fc	-0.15454477
160	0xbd81ace2	-0.06331803
161	0xbdc17494	-0.09446064
162	0xbdfa8217	-0.12231844
163	0xbe10fbd4	-0.14158565
164	0xbd88a0c3	-0.06671288
165	0x3c23c7e2	0.009996386
166	0xbd6052c7	-0.054766443
167	0xbd80f0ae	-0.06295906
168	0xbd5ae692	-0.053442545
169	0xbd42751f	-0.047474977
170	0xbe71352a	-0.23555437
171	0x3e6232fe	0.22089764
172	0xbe105eb0	-0.1409862
173	0x3dec200f	0.11529552
174	0xbe62b17b	-0.22138016
175	0xbc65fe68	-0.014037706
176	0xbd57c50c	-0.052678153
177	0xbe5de33b	-0.21668713
178	0xbca051d9	-0.019570278
179	0xbe6c956c	-0.23103875
180	0x3d7fbbea	0.06243507
181	0x3e162dfc	0.14665979
182	0xbd9b7bde	-0.07591985
183	0x3d79a061	0.060943965
184	0xbe552ec0	-0.20818615
185	0x3de74531	0.11292494
186	0xbe603344	-0.21894556
187	0x3e8d2c6e	0.2757296
188	0x3c91601f	0.01774603
189	0x3d5b2946	0.05350616
190	0x3e6b029f	0.22950219
191	0xbe1c3882	-0.15255931
192	0xbdf5ca8f	-0.120015256
193	0x3d1c4156	0.038148247
194	0xbe8e9ab2	-0.27852398
195	0x3d6bb28d	0.057543326
196	0xbd1afec9	-0.03784064
197	0xbe6f185b	-0.23349135
198	0xbc7f5644	-0.015584532
199	0xbe3e7a46	-0.18601331
200	0x3d1180fe	0.035523407
201	0x3e442850	0.19156003
202	0x3e85de19	0.2614601
203	0xbe56fb7d	-0.20994373
204	0x3dc1670f	0.09443485
205	0xbe133f9e	-0.14379737
206	0x3d73d6c2	0.05953098
207	0x3e090cd6	0.13383803
208	0xbeb18284	-0.34669888
209	0xbe80bafb	-0.25142655
210	0xbe7fee3a	-0.2499322
211	0xbcc253e7	-0.023721648
212	0x3dd2c327	0.102911286
213	0xbe38192d	-0.17978354
214	0xbd70e7c3	-0.058814775
215	0xbda4faf1	-0.08055676
216	0x3e743cf5	0.23851378
217	0xbe6a8979	-0.22904004
218	0xbe20c54b	-0.15700261
219	0x3d390096	0.045166574
220	0xbe711fd0	-0.23547292
221	0x3e448025	0.19189508
222	0xbe867c35	-0.26266637
223	0xbdd21aab	-0.10258993
224	0xbe037457	-0.12837349
225	0xbcf62fb6	-0.030052047
226	0xbe009e43	-0.12560372
227	0x3e5ff551	0.21870925
228	0xbe8cded6	-0.2751376
229	0xbe0c5428	-0.13703978
230	0xbdbf3626	-0.093365
231	0xbe7f7bc2	-0.24949554
232	0xbe69203e	-0.22766206
233	0x3d73067a	0.05933235
234	0x3e7d47dd	0.24734445
235	0xbd471cc3	-0.048611414
236	0xbdb544cb	-0.08851012
237	0x3dc34d95	0.09536282
238	0x3e212788	0.15737736
239	0xbe80613e	-0.2507419
240	0xbe2d8cfe	-0.16948316
241	0x3e6e2e00	0.23259735
242	0x3ddbd217	0.10733431
243	0xbe87bb9d	-0.26510325
244	0x3c3e41c3	0.0116123585
245	0xbe4706c4	-0.19436175
246	0xbe4af912	-0.19821575
247	0xbe02d46a	-0.12776342
248	0x3e492c33	0.19645767
249	0xbe3ca8bd	-0.18423744
250	0x3e5b5aad	0.21421309
251	0xbe7c40dd	-0.24634118
252	0xba8a2e52	-0.0010542369
253	0x3e7e4bf9	0.24833669
254	0xbc8b483e	-0.017002221
255	0xbde54cc4	-0.111962825

in_proj_bias f4 [48]
0	0x3c44bc0a	0.012007723
1	0xbcec9e21	-0.028883995
2	0x3d37d7bb	0.04488347
3	0xbd32de7e	-0.043669216
4	0x3cdbc2e3	0.026826328
5	0x3c1543ee	0.009110434
6	0x3d390bb0	0.04517716
7	0x3cb0d7e3	0.021587318
8	0xbcd480b2	-0.025940273
9	0x3ba57efe	0.005050539
10	0xbb164fe7	-0.002293581
11	0xbd2231ef	-0.0395984
12	0x3d75af43	0.059981596
13	0xbcd78008	-0.026306167
14	0xbbac22ba	-0.005253163
15	0x3d105392	0.03523595
16	0x35297c61	6.31384e-07
17	0x360c1486	2.0873572e-06
18	0xb4ff36a6	-4.7537213e-07
19	0xb3b5aa4a	-8.459445e-08
20	0x36035827	1.9571833e-06
21	0x36021bdc	1.9387726e-06
22	0x34c1f73d	3.612894e-07
23	0x3570f51d	8.9763654e-07
24	0xb521f002	-6.032643e-07
25	0x3533bf2a	6.6960877e-07
26	0x36501543	3.1006791e-06
27	0xb5d15a54	-1.5598002e-06
28	0xb6c24fd4	-5.7909438e-06
29	0x35e94a74	1.7381522e-06
30	0xb5fb57a8	-1.8726469e-06
31	0xb58fb7a7	-1.070778e-06
32	0xbb830a7b	-0.003999052
33	0x3c19ecba	0.009394819
34	0xbccd2aba	-0.025044788
35	0x3acc9513	0.0015608392
36	0xbc309606	-0.010777956
37	0x3cbfab17	0.023397012
38	0xbca227ad	-0.01979431
39	0x3b9ff9df	0.004882082
40	0xbcd437c5	-0.0259055
41	0xbd311105	-0.04322912
42	0xbc4ba571	-0.012429581
43	0x39bc37a0	0.00035899598
44	0x3c5c7e2b	0.013457815
45	0x3cc156a9	0.023600893
46	0x3bc51fdd	0.0060157613
47	0xbd47b7a7	-0.04875913

weight f4 [16, 16]
0	0x3e40c413	0.18824796
1	0xbca50197	-0.02014236
2	0x3e34e5c5	0.17665775
3	0xbe0c0668	-0.13674319
4	0xbe4bd20c	-0.19904345
5	0x3e2346ce	0.15944979
6	0x3da5bdab	0.08092817
7	0xbe3e0374	-0.18556005
8	0x3dadfd30	0.08495557
9	0xbd5243c7	-0.05133417
10	0x3dc1d157	0.094637565
11	0x3e50cafc	0.20389932
12	0x3e49b61f	0.1969838
13	0x3ca4c1c1	0.02011192
14	0x3deca110	0.11554158
15	0xbe6de257	-0.23230873
16	0x3ce475cb	0.0278882
17	0x3da056cc	0.07829055
18	0x3e02ad67	0.1276146
19	0x3d72fe61	0.059324626
20	0x3e090a35	0.133828
21	0xbcc6df6c	-0.024276458
22	0x3d8e36c5	0.0694404
23	0xbe8492c3	-0.2589322
24	0xbdba3462	-0.090920225
25	0x3e16f9b5	0.14743693
26	0x3db02ef3	0.08602705
27	0x3e2a9a24	0.16660362
28	0x3db1779d	0.086653925
29	0xbe7a6b2b	-0.24454944
30	0x3e03004b	0.1279308
31	0xbda7b162	-0.0818813
32	0xbd429433	-0.047504615
33	0xbbc3dd42	-0.0059773037
34	0x3e4be16b	0.19910209
35	0x3e6de380	0.23231316
36	0x3e2b6d60	0.16740942
37	0xbd80cc09	-0.062889166
38	0x3c7b4790	0.015336886
39	0x3dd9eda8	0.106410325
40	0x3e55220b	0.20813768
41	0x3ce53641	0.027979972
42	0xbe53e1a2	-0.20691541
43	0x3df659ca	0.12028845
44	0xbe580437	-0.21095358
45	0x3c82ae73	0.015952324
46	0x3e2f271c	0.17104763
47	0x3deee85c	0.11665413
48	0x3e45aa85	0.1930333
49	0x3e40755e	0.18794772
50	0xbe5a9868	-0.21347201
51	0xbb30ed80	-0.002699703
52	0x3d80b1b8	0.06283897
53	0xbc9192f1	-0.017770262
54	0xbd0d2deb	-0.03446762
55	0x3e7e2523	0.24818854
56	0xbe233d35	-0.15941317
57	0xbe752bb5	-0.23942454
58	0xbe49edab	-0.1971957
59	0xbe2e25ca	-0.17006603
60	0x3d8cf42f	0.06882512
61	0x3e4a66db	0.19765799
62	0xbd928084	-0.07153419
63	0xbe5df63c	-0.21675962
64	0x3e1878f6	0.14889893
65	0x3cbfec11	0.023427995
66	0xbd9ee889	-0.07759196
67	0xbc8a7653	-0.016902125
68	0x3d8954ab	0.06705602
69	0xbd9bfe6e	-0.07616888
70	0x3d00d987	0.03145745
71	0x3da0de21	0.07854868
72	0xbe208687	-0.15676318
73	0x3e60dda8	0.21959555
74	0x3e312427	0.17298947
75	0xbd8a1c9c	-0.06743738
76	0x3e2b73cd	0.16743393
77	0xbd345575	-0.04402681
78	0xbd9574c1	-0.0729766
79	0x3dce18ea	0.10063346
80	0xbda1ee9b	-0.079068385
81	0xbd2aecb7	-0.041729655
82	0xbd44cf1c	-0.048049077
83	0xbd229034	-0.039688304
84	0xbd5de0dc	-0.05416952
85	0xbdd3d95c	-0.103441924
86	0xbcc558b7	-0.024090154
87	0x3e477aeb	0.19480483
88	0x3c84482f	0.016147701
89	0xbe804f45	-0.25060478
90	0xbe1edcee	-0.15513965
91	0x3c712919	0.014719271
92	0x3d97c466	0.07410507
93	0x3e26662d	0.16249914
94	0x3e76576e	0.2405679
95	0xbe690779	-0.22756757
96	0x3e6efa40	0.2333765
97	0x3e12ae9c	0.1432442
98	0xbde408a0	-0.111344576
99	0xbe262f20	-0.16228914
100	0xbe14eedc	-0.14544243
101	0xbbda66cc	-0.0066650864
102	0xbd5e918e	-0.05433803
103	0xbe68848c	-0.22706813
104	0xbd84557c	-0.06461617
105	0x3e24a75d	0.16079469
106	0xbd1c4245	-0.038149137
107	0xbe3e6e3e	-0.18596742
108	0xbe2b3974	-0.16721135
109	0x3d9c7a62	0.0764053
110	0x3dbe79a8	0.09300548
111	0xbdd60a91	-0.10451234
112	0xbe2b9d61	-0.16759254
113	0x3daa26aa	0.08308156
114	0xbe39f1d6	-0.1815866
115	0xbe61f1be	-0.22064874
116	0x3e06730f	0.13129829
117	0x3dc3351a	0.09531613
118	0xbbdddb1e	-0.0067705056
119	0x3cf46752	0.029834423
120	0x3e1cdcc1	0.15318586
121	0xbe82a949	-0.2551978
122	0xbd8de2fb	-0.06928059
123	0xbe06f020	-0.13177538
124	0xbe7b8e1a	-0.24565926
125	0x3e86d36d	0.2633318
126	0xbe8e9d08	-0.2785418
127	0xbdf178aa	-0.11790593
128	0x3dd22589	0.102610655
129	0x3e5a85cb	0.213401
130	0xbd517218	-0.0511342
131	0x3e64de17	0.22350346
132	0x3cba2ffe	0.022727963
133	0xbe5a43dd	-0.2131495
134	0xbe37845b	-0.17921583
135	0xbdc2d285	-0.0951281
136	0xbc5a9310	-0.0133407265
137	0x3e3c00e6	0.18359718
138	0xbe0e05e3	-0.13869433
139	0xbd8021ee	-0.062564716
140	0x3e2699ca	0.16269603
141	0xbcb57f61	-0.022155466
142	0x3d89454a	0.06702669
143	0xbb71f41d	-0.0036919184
144	0xbd884127	-0.06653052
145	0xbda1c5c7	-0.07899051
146	0x3e4eb8fc	0.20187753
147	0xbde17693	-0.11008944
148	0x3d7f71e0	0.06236446
149	0x3dde5823	0.108566545
150	0x3de74204	0.11291888
151	0xbcb3ead6	-0.021962564
152	0xbd460873	-0.0483479
153	0xbdafc075	-0.0858163
154	0x3db22a37	0.08699458
155	0xbcdef7c7	-0.027217759
156	0x3de75465	0.11295394
157	0x3dbed0da	0.09317179
158	0x3dfce9ec	0.123493046
159	0xbdbb1acd	-0.09135971
160	0xbdea9bc7	-0.114554934
161	0xbd426b43	-0.047465574
162	0x3d23a9a7	0.039956715
163	0x3ca4e7ae	0.020130005
164	0x3e43a589	0.19106115
165	0x3e45c34e	0.19312784
166	0xbd0a3a75	-0.033747155
167	0x3e3a51a0	0.181952
168	0xbe4258fd	-0.18979259
169	0xbdebd95a	-0.11516066
170	0x3de0d25d	0.109776236
171	0xbe32da5b	-0.17466109
172	0xbd8c252d	-0.06843028
173	0xbe1c7f6e	-0.15282986
174	0x3dedb82b	0.11607393
175	0x3e2c36e6	0.16817817
176	0x3e57fd59	0.21092738
177	0xbba5c8d6	-0.005059342
178	0xbe417739	-0.18893136
179	0x3dad7cd8	0.08471078
180	0xbe24e01a	-0.16101113
181	0xbdc9017e	-0.09814738
182	0xbe0a3a4a	-0.13498798
183	0x3e20d4c3	0.15706162
184	0xbc3e2ffd	-0.011608121
185	0x3d3a37d0	0.045463383
186	0x3cd05b69	0.025434213
187	0x3d51e258	0.05124125
188	0xbdb64773	-0.089003466
189	0x3e604c59	0.21904124
190	0xbe399763	-0.18124156
191	0xbd3ce97b	-0.0461211
192	0xbd968e0d	-0.07351313
193	0xbe048341	-0.12940694
194	0x3d55d8a3	0.052208554
195	0x3e060b69	0.1309029
196	0x3dc4a8d6	0.096025154
197	0x3d9ee286	0.0775805
198	0x3e0c757b	0.1371669
199	0x3dd7804b	0.10522517
200	0xbd98ef83	-0.07467558
201	0xbda65406	-0.08121495
202	0x3dda1c15	0.106498875
203	0x3e38dc51	0.18052794
204	0x3e2008ea	0.156284
205	0xbc946d76	-0.018118601
206	0x3e84bbf6	0.25924653
207	0xbe4fd65b	-0.20296614
208	0x3d3dbf10	0.04632479
209	0x3e1c0629	0.15236725
210	0x3b1e2758	0.0024132337
211	0x3e374a0b	0.17899339
212	0x3e5e40fd	0.21704479
213	0xbe5696bf	-0.20955943
214	0x3dce843d	0.10083816
215	0x3dd7e370	0.10541427
216	0x3e1e6840	0.15469456
217	0x3dfdbcb0	0.12389505
218	0x3e12a3f3	0.14320354
219	0x3d5abd10	0.05340296
220	0x3e08cec6	0.13360128
221	0xbe624608	-0.22097027
222	0xbe6eea3a	-0.23331538
223	0x3e2a2def	0.16619085
224	0x3e326bce	0.17423937
225	0xbdea5fee	-0.114440784
226	0x3e260a5b	0.16214888
227	0x3b467c52	0.0030286503
228	0x3de995b3	0.11405506
229	0xbd027c14	-0.03185661
230	0x3d803dcd	0.062617876
231	0xbdc72ec3	-0.09725716
232	0xbe43eb51	-0.19132735
233	0x3def919b	0.11697694
234	0xbdc47453	-0.095924996
235	0x3e1b1355	0.15144093
236	0x3d86e210	0.06586087
237	0xbdb27ac8	-0.08714825
238	0x3e68a775	0.2272013
239	0x3e6db63d	0.2321405
240	0xbe138f4a	-0.14410129
241	0x3dc38aae	0.095479354
242	0x3d76dd85	0.06026985
243	0xbe1d8ede	-0.15386531
244	0x3d25ddbf	0.040494677
245	0xbe708a19	-0.2349018
246	0xbd032374	-0.032016233
247	0xbe7f9d32	-0.24962309
248	0x3e864ad0	0.26228952
249	0x3e008407	0.12550364
250	0x3e2f23cd	0.171035
251	0x3dcb20b2	0.099183455
252	0xbe124892	-0.14285496
253	0x3d4c27b2	0.049842544
254	0x3dee5d82	0.11638929
255	0x3e363d87	0.17796908

bias f4 [16]
0	0x3c93b3ea	0.018030126
1	0x3c2b802b	0.010467569
2	0xbc6f6ec2	-0.014613809
3	0x3cff0884	0.03113199
4	0xbc37f702	-0.011228325
5	0x3c8f22cb	0.017472645
6	0xbb74c263	-0.0037347309
7	0x3bfc6847	0.0077028605
8	0x3a020008	0.0004959111
9	0xbd179c19	-0.0370141
10	0x3c3f7db0	0.011687681
11	0x3b3a2284	0.002840192
12	0x3c80cf7f	0.015723942
13	0xbce83238	-0.028344259
14	0xbc02268c	-0.007943761
15	0xbc11cee5	-0.008899425

weight f4 [16]
0	0x3f822da2	1.0170176
1	0x3f81ea1b	1.0149568
2	0x3f6b3057	0.91870636
3	0x3f80aad5	1.0052134
4	0x3f7d5c26	0.9896873
5	0x3f822f4c	1.0170684
6	0x3f72107f	0.9455642
7	0x3f8353aa	1.0259907
8	0x3f6d0f05	0.92601043
9	0x3f8467a1	1.0344125
10	0x3f7f1d02	0.9965364
11	0x3f7f0f5e	0.99632823
12	0x3f813745	1.0094992
13	0x3f8452a4	1.033772
14	0x3f6abeb8	0.91697264
15	0x3f7b3a9e	0.9813632

bias f4 [16]
0	0xbcb50925	-0.022099087
1	0xbb7ec76a	-0.0038876184
2	0xbd4d3969	-0.05010358
3	0x3c0645f0	0.008195385
4	0x3c1099b3	0.008825707
5	0xbc443320	-0.01197508
6	0xbd3b53ad	-0.045734096
7	0xbc7b89eb	-0.015352706
8	0x3c7c1032	0.015384721
9	0xbca724ac	-0.020403229
10	0xbd2cb7b2	-0.042167373
11	0x3bbfbf92	0.0058516944
12	0x3c08a543	0.008340183
13	0xbce87a8e	-0.028378751
14	0xbaead582	-0.0017916413
15	0xbd2dec52	-0.0424617
