cylinder2D/data/senseiver_0.pth (torch, 524613 bytes, 125 tensors)

latent f4 [4, 16]
000000 93 41 e3 3b b1 eb c8 3a af 87 f9 bb 46 96 c5 3b
       0.0069353073 0.001532903 -0.0076150517 0.006029877
000010 ba 0d 93 3d b8 94 94 3c a6 93 20 bd 44 a3 ee 3b
       0.071803525 0.01813732 -0.03920331 0.0072826464
000020 b1 2a 28 3c 65 11 2a 3c 28 0f 81 3c 68 1f 19 bc
       0.010264085 0.010380124 0.015754297 -0.009345867
000030 29 e5 72 3d 38 d5 a0 3c b0 04 0a bd d0 dc 81 bc
       0.059300575 0.01963292 -0.033695877 -0.015852362
000040 03 8d d7 bc 0d fc 50 3d d3 4a 9a bc b4 6c 4d bd
       -0.026312357 0.051021624 -0.018834507 -0.050152496
000050 3d 82 78 bd 23 83 47 3c 05 39 24 3d cb 43 3f 3c
       -0.06067108 0.0121772615 0.04009344 0.011673878
000060 b4 57 03 3d 86 a1 68 bd a4 3b ee 3c 03 6b 6d bc
       0.032066062 -0.056794666 0.029081173 -0.014490846
000070 e5 e8 1b 3d da 14 b1 bc d6 bb d2 bc 73 cd a8 3c
       0.038063902 -0.021616388 -0.025724333 0.020605778
000080 0c d6 12 ba 7a 5a 96 bc 66 56 43 bd 08 d6 00 3d
       -0.00056013535 -0.01835369 -0.047689818 0.031454116
000090 5e 46 cc 3c b1 2f 89 3b 7e 6b e7 3c e4 d7 05 3d
       0.024935897 0.0041865935 0.028249498 0.032676592
0000a0 9f 07 97 bb d1 00 2d 3c b0 ba 90 ba 0f 7a 88 bd
       -0.004609063 0.010559277 -0.0011041965 -0.06663906
0000b0 fd db 21 3d d6 af 11 3d 35 6d c8 3c 0c 97 bd 3a
       0.039516438 0.03556808 0.024466136 0.0014464571
0000c0 7e 01 98 bc b4 9c 89 3d b5 d2 c6 3c 19 6d 33 3c
       -0.018555399 0.06719342 0.024270395 0.010951304
0000d0 4c 52 6b b9 bf 58 b8 3c 8f 26 42 bb dd 97 4e bc
       -0.00022442004 0.022503255 -0.0029625033 -0.012609449
0000e0 46 07 f7 3b 53 c5 de 3b 3e 7f df bc 08 b0 c3 3c
       0.007538709 0.006798425 -0.027282353 0.02388765
0000f0 0d e2 dc bc 07 ef 39 bd b9 ba 5a 3c 76 6d 0a ba
       -0.026963258 -0.04539397 0.013350182 -0.0005280593

weight f4 [64, 129]
000000 4c 30 19 bf 22 43 51 3d ff e6 97 bd 1d e3 82 bd
       -0.5983932 0.051089413 -0.07417106 -0.06390975
000010 cb 4b a8 bc d4 21 a9 3c db 60 24 3c 2a 65 8d 3d
       -0.020543953 0.020646013 0.010032858 0.06904061
000020 85 e2 5f 3b 5a fc ed 3c 37 ac d8 bc d2 17 e8 bb
       0.0034162116 0.029050995 -0.026449306 -0.0070829177
000030 ec a0 be bd 22 1f 4a bd 5f 89 3e bd 2b 57 4b 3b
       -0.09308037 -0.049346097 -0.046517726 0.0031027298
000040 b6 00 ee 3c c7 63 2a 3d 06 55 71 bd c7 47 4d bd
       0.029053073 0.04159906 -0.058918975 -0.05011728
000050 aa 21 0f 3d 5d b6 74 3d 75 b3 9b bc d4 6c 8a 3d
       0.034944214 0.059744228 -0.01900647 0.067590386
000060 da dc 93 bc 28 33 57 3c 58 5e 9b 3d cb c7 a3 bd
       -0.018049646 0.013134755 0.07586354 -0.07997092
000070 1b aa 66 bd 2a 0d 12 bd 07 6f 00 bd ff ab 83 3d
       -0.05631457 -0.035657085 -0.031355884 0.0642929
000080 49 99 66 bd 7b 02 54 bd f6 c2 89 bd 07 34 a9 bd
       -0.056298528 -0.051760178 -0.06726639 -0.082618766
000090 dd 63 7c bd d2 5c ad 3d e9 66 f8 3c a8 a9 58 3d
       -0.061618675 0.0846497 0.030322509 0.05289617
0000a0 b2 f8 9c 3b f8 51 21 bd fa 04 d6 3c f5 ef a9 bd
       0.004790389 -0.039384812 0.02612542 -0.08297721
0000b0 43 57 54 bd 92 0f 46 bd c4 24 8d 3d 6b 13 57 3d
       -0.05184103 -0.048354693 0.06891778 0.052508753
0000c0 14 eb 26 bd 9c 95 32 3a 03 01 57 3d 4a 29 bb 3d
       -0.04075153 0.00068124547 0.0524912 0.09138735
0000d0 96 25 08 3d 9a 69 51 3c d3 46 94 3d bc 7b 60 bd
       0.03323897 0.012781525 0.07240071 -0.054805502
0000e0 be e1 e6 3c 90 60 8d bd 94 f3 4b bd 1f ba 22 bd
       0.028183814 -0.069031835 -0.04979284 -0.03972828
0000f0 ee d5 23 3d 3f e8 3a 3d b2 57 7a bd 18 ab 11 3d
       0.03999894 0.045631643 -0.06111879 0.03556356
000100 1f 1a 1c 3d 0e b8 4a bc 17 bb 17 3c 8f 7d 35 3c
       0.03811085 -0.012372984 0.009260914 0.011077299
000110 05 b9 5b 3d 8f 7a b3 3d 5c 8e 81 bd f4 49 30 bd
       0.053643245 0.087636106 -0.06325981 -0.043039277
000120 a1 e0 46 3d 30 d7 a1 3d 76 83 89 3d 7d e5 bf 3d
       0.048554067 0.07902372 0.06714527 0.09369943
000130 e4 ab 9e 3c 59 95 a0 bd bb ad 01 bc 21 d1 3a bd
       0.019369073 -0.07840986 -0.007914956 -0.045609597
000140 6e 7c b4 bd 9a a3 83 3d e6 2b 9f 3d 50 45 bd bd
       -0.088127956 0.06427689 0.07772045 -0.09241736
000150 3b 48 5b 3c bc ff 62 bc 39 45 a9 bb f9 3e 3d bd
       0.01338392 -0.013854917 -0.0051657227 -0.046202634
000160 c3 d7 0f 3d 23 f6 45 bd d7 5d 09 3d fd 35 1e 3d
       0.035117876 -0.048330437 0.03353676 0.038625706
000170 76 2d 94 3d 48 d9 0a 3d 3b ce b8 bd c1 bf 7c bd
       0.072352335 0.03389862 -0.0902371 -0.06170631
000180 79 32 60 3d 29 ad 92 3b 1e 1a 99 bd a4 dc 28 bd
       0.054735634 0.0044762087 -0.074756846 -0.041226044
000190 c3 d6 88 3d 10 71 6b 3d ef af 15 bd 98 5c c9 bb
       0.066815875 0.05748087 -0.036544736 -0.0061450712
0001a0 01 2b bf bd b0 2c 93 3b cb 6f 56 bd c9 27 a1 bd
       -0.09334374 0.004491411 -0.052352708 -0.078689165
0001b0 e5 47 88 b9 fc a7 85 3c d9 b1 17 bd fc cd 2f 3d
       -0.00025993507 0.016315453 -0.037034843 0.04292105
0001c0 bb 4b 43 bd 1f 09 a1 3d bf 7f 67 3d 48 a3 9a bd
       -0.047679644 0.07863068 0.056518313 -0.07550675
0001d0 60 2f 83 bc 2b 52 af bb f1 73 42 3c fa 6c c4 3c
       -0.016013801 -0.0053503714 0.011868463 0.023977745
0001e0 e3 54 20 3d 66 37 b4 bb de a0 ed bc 66 86 43 3d
       0.039143454 -0.005499768 -0.029007372 0.047735594
0001f0 13 5e c0 bd 60 27 14 bd 51 6d a5 bc 0a 3a 37 bd
       -0.09392943 -0.036170363 -0.020193728 -0.044733085
000200 00 c2 3f bd 67 58 2e 3d 9b f3 33 bd 9f 22 80 3c
       -0.046815872 0.042564776 -0.043933492 0.015641509
000210 27 bf 9e bd 0f fc c2 bc 27 6f 81 3d e7 aa e3 bc
       -0.07751303 -0.023801832 0.06320029 -0.027791454
000220 71 86 04 3c 20 47 b6 bc 3a 5e a7 3c 66 0c 5c 3d
       0.008088694 -0.022250712 0.020430673 0.05372276
000230 f4 4d 92 3d 74 9b 8f 3d 4c 19 8e 3d 04 67 b7 3b
       0.07143775 0.07012072 0.06938419 0.005596997
000240 b8 5a 9d bd a8 aa 35 bd c3 ca 98 3d 53 91 cb bb
       -0.07683319 -0.044352204 0.07460549 -0.0062123924
000250 e7 f9 cc bc 95 88 8a bd 31 41 81 bd 6d d4 5d bd
       -0.025021506 -0.06764332 -0.063112624 -0.054157663
000260 c7 83 70 bc 50 81 96 3d 20 00 44 3d db 90 74 bd
       -0.014679856 0.07348883 0.04785168 -0.059708457
000270 31 fa 6d 3d 21 a3 47 bd 01 9a 2f 3a 8e ef 12 bd
       0.05809993 -0.048739556 0.00066986686 -0.03587299
000280 b1 7a e9 3a 7f d5 bb bc 5c cb 83 bd 6e 0b a1 bd
       0.0017813054 -0.022928951 -0.06435272 -0.07863508
000290 20 b6 3c bc e2 b0 56 3c e1 05 5e bd 5d 0c 42 3d
       -0.011518031 0.013103696 -0.054204825 0.04737507
0002a0 70 cb ba bd 81 60 06 bc e6 ea a3 3d 8c 20 4f bd
       -0.09120834 -0.008201719 0.08003788 -0.05056815
0002b0 c9 61 ae 3d 35 5f 57 3c 9f 5f a2 bd 60 31 15 3d
       0.08514745 0.013145258 -0.079283945 0.03642404
0002c0 14 50 f8 bc b4 02 2e bd bb 24 39 3d b9 39 92 bd
       -0.030311622 -0.042483047 0.045201045 -0.07139916
0002d0 83 15 81 bc 74 0c b1 bc fd f9 2e 3d 87 74 ad 3b
       -0.015757328 -0.021612383 0.042718876 0.005293432
0002e0 d4 fe 2d 3d 7b 67 4a 3c ba 72 7e bc 79 de 07 bd
       0.04247935 0.012353773 -0.015530283 -0.03317115
0002f0 e5 3e 8f bd c2 25 3a 3d 18 53 6d 3d a6 78 98 3d
       -0.06994418 0.045446165 0.057940573 0.07444887
000300 c1 49 9c bd ff 2d 82 3c a7 93 85 bd ed 59 2c bd
       -0.07631255 0.015891073 -0.06522303 -0.042077947
000310 64 1c 5c bd b7 5f 03 3c 1a 93 31 bd 7c a0 aa 3c
       -0.053738013 0.008018426 -0.043353178 0.020828478
000320 c1 61 ab bc ce 30 86 3d 39 3b 37 bd b4 e2 be bd
       -0.020920636 0.065522775 -0.044734214 -0.09320584
000330 b6 f2 05 bd 4c 0b a9 3d a9 4c 57 bd 1e bc 64 3d
       -0.03270217 0.08254108 -0.052563343 0.055843465
000340 f5 4b 84 3d 3d d9 2e bc 55 5c 1a bc 33 8e ec 3b
       0.064598 -0.010671911 -0.009421428 0.0072191
000350 e7 bd 3f bc 58 5b ef bc d6 ba af 3c 5c ec 5f 3c
       -0.011702991 -0.02921836 0.021451395 0.013667192
000360 90 21 9a bd 76 18 30 bd e9 1d 92 3d 54 de 8b bd
       -0.07525933 -0.042992078 0.07134611 -0.06829515
000370 c9 44 50 bc ea 5b b7 3d d8 ac 5c 3d 74 f8 d8 bb
       -0.012711712 0.08953078 0.053875774 -0.006621415
000380 7f da ca bd 82 c1 8b 3d b2 63 92 bd fd bf 3f bd
       -0.09904956 0.06824018 -0.071479216 -0.046813954
000390 2c 08 53 3b 6b de 00 bd b0 70 a3 bc 4b 8f bf 3d
       0.0032200916 -0.031462114 -0.019951195 0.09353503
0003a0 2c f3 f0 3c 3b d4 3c 3d 75 fd 9a 3d 08 18 40 bd
       0.029412828 0.046100836 0.07567874 -0.046897918
0003b0 89 8d 73 3c 5f bf 21 bd 2c 07 e7 bc 07 bc 7a 3b
       0.014865288 -0.039489146 -0.028201662 0.0038259046
0003c0 95 38 da 3c 19 5d 94 3d 64 04 01 bd 00 3a e6 b8
       0.026638309 0.072443195 -0.031498328 -0.00010978058
0003d0 64 bc 2c 3d 42 4b a1 bd de c3 7a 3d 75 4f c2 bd
       0.04217185 -0.078756824 0.06122195 -0.094878115
0003e0 c4 36 29 3c bb f2 fe 3b 19 66 91 bd 68 25 a7 3c
       0.010327999 0.0077804006 -0.07099552 0.020403579
0003f0 45 cc c1 3d 0c 9b 6f bd b8 a5 0a bd d4 d6 3e bc
       0.094627894 -0.058497474 -0.033849448 -0.011647899

bias f4 [64]
000000 b9 85 9b bd 0d 25 35 3d b5 94 a7 3d 62 71 37 3c
       -0.07593865 0.044224788 0.081826605 0.011196466
000010 ec 39 af bb 24 75 20 bd 60 e2 e2 3c bd fd 2f 3c
       -0.005347481 -0.039174214 0.027695835 0.010741648
000020 34 d1 30 bd cc 40 87 3d b2 26 81 3d 97 8d 84 3d
       -0.04316826 0.06604156 0.06306209 0.064723186
000030 d2 03 86 3d a2 82 34 bd 67 9c 98 3d 18 71 a5 bb
       0.065436974 -0.044069894 0.074517064 -0.005048882
000040 35 e3 a3 bd 5e 0e 5d 3d e8 3e 74 bd c3 13 2b bd
       -0.08002321 0.05396878 -0.059630305 -0.041766893
000050 98 ba 81 3c 15 83 70 3d 32 61 02 3c 85 de 91 bd
       0.015836045 0.05871876 0.0079577435 -0.0712252
000060 b4 ae 45 bd 3c 94 36 3d d9 8b 8f bc 31 d1 d1 3c
       -0.048262313 0.04457496 -0.01752274 0.025612446
000070 e9 1c 93 3d 59 4f 5d bd db 5b a3 bd 15 a3 f9 bc
       0.071832485 -0.05403075 -0.079765044 -0.030473271
000080 16 36 ff bb 54 87 d0 bc 8d cf 94 3d 6b 28 69 bd
       -0.00778843 -0.025455154 0.0726615 -0.05692331
000090 84 50 3e 3d 32 88 d6 3c ab ae a2 3d 0d 75 9a bd
       0.046463504 0.02618799 0.079434715 -0.07541857
0000a0 48 10 6d 3d f5 1d 0a bd 6c ba fc bc 12 59 ab 3b
       0.057876855 -0.033719976 -0.030850612 0.005229124
0000b0 be fa 60 3d 4b b3 03 3d 1e fe 5d bd aa 5c 6b 3c
       0.054926626 0.03215341 -0.054197423 0.014365355
0000c0 e1 32 05 bc ec f2 77 3c f5 03 74 bb c4 e5 8d ba
       -0.008129806 0.015133601 -0.0037233804 -0.0010825922
0000d0 65 4d 43 3d 87 62 93 3d b7 50 45 3d d4 6e 01 bd
       0.04768123 0.07196527 0.04817268 -0.031599835
0000e0 ed c2 07 3b 1f 64 73 3c 2b 58 6b bd 53 58 84 3d
       0.002071555 0.014855414 -0.05745713 0.06462159
0000f0 fd e3 29 3d cc e8 2a 3d ee 4e a3 3d d0 d2 87 bc
       0.041477192 0.04172592 0.07974039 -0.016580015

weight f4 [16]
000000 ac a9 7e 3f 79 29 84 3f a3 c5 7e 3f a0 6d 80 3f
       0.9947765 1.0325156 0.9952032 1.0033455
000010 c1 49 7f 3f ca ba 7a 3f e8 ce 7c 3f 93 6c 7f 3f
       0.99721915 0.9794127 0.98753214 0.99775046
000020 f9 36 7c 3f 01 ee 7c 3f bb ea 7d 3f b8 fc 80 3f
       0.9852138 0.98800665 0.99186295 1.0077124
000030 e8 bb 80 3f 8d 70 82 3f 1d 81 7e 3f d7 cb 7d 3f
       1.0057344 1.0190598 0.9941576 0.9913916

bias f4 [16]
000000 04 23 fd bb 2c 4d 7a 3c 9a 77 08 3b dd 27 22 3b
       -0.0077251215 0.015277188 0.0020823241 0.0024742999
000010 70 85 41 bc 9b 8d 1a 3c ce 9e bb ba d9 e5 f5 39
       -0.011811599 0.009433175 -0.0014314295 0.0004690129
000020 8a 22 74 bb 1f 89 d5 3b dc 64 1f bc 8d 9b 1e bc
       -0.0037252032 0.0065165902 -0.009728637 -0.009680641
000030 ce d4 c3 bb 5c 9f 09 ba 32 fd b1 3c cd e8 2e 3c
       -0.005976296 -0.00052498817 0.021727178 0.010675621

weight f4 [64]
000000 0e a7 81 3f c7 03 7b 3f 31 49 77 3f 7b ed 7f 3f
       1.0129106 0.9805264 0.96596056 0.9997174
000010 6c db 7d 3f 5b 3f 7e 3f ca 3c 80 3f c7 fc 77 3f
       0.99162936 0.9931542 1.0018551 0.9687008
000020 57 c9 7c 3f a9 e8 88 3f 57 89 7e 3f d2 4c 81 3f
       0.9874472 1.0696002 0.99428314 1.0101569
000030 c1 07 81 3f c6 45 81 3f fa 32 79 3f 65 ef 80 3f
       1.0080491 1.0099418 0.9734341 1.0073057
000040 5a d2 84 3f 81 dc 80 3f 7f 65 80 3f d7 07 80 3f
       1.0376694 1.0067292 1.0030974 1.0002393
000050 8d 39 80 3f 7f e8 76 3f 20 76 79 3f 57 8c 82 3f
       1.0017563 0.9644851 0.9744587 1.0199078
000060 fe 10 80 3f c1 07 7e 3f 0a f3 7d 3f 69 55 80 3f
       1.0005186 0.9923058 0.99198973 1.0026065
000070 43 1a 80 3f 6e e0 80 3f c4 3c 82 3f f8 5c 84 3f
       1.0008014 1.006849 1.0174794 1.0340872
000080 ae 2d 7a 3f 68 2b 80 3f 1e f4 7e 3f 42 e7 80 3f
       0.9772595 1.0013247 0.99591243 1.0070574
000090 6a d0 7f 3f ca 93 7a 3f 02 83 7e 3f 36 c1 80 3f
       0.9992739 0.9788176 0.9941865 1.0058963
0000a0 43 43 80 3f b4 7f 79 3f bf bf 7b 3f 8e 1e 82 3f
       1.0020527 0.97460485 0.98339456 1.0165575
0000b0 87 93 7a 3f 80 8e 75 3f 6b 91 7d 3f 8b a9 78 3f
       0.9788136 0.9592056 0.99050015 0.971337
0000c0 7d dd 81 3f 71 5b 7c 3f a0 ad 81 3f 60 84 80 3f
       1.0145718 0.9857703 1.0131111 1.0040398
0000d0 90 34 7d 3f 6c 88 7b 3f c4 f8 76 3f 76 de 81 3f
       0.9890833 0.9825504 0.96473336 1.0146015
0000e0 67 36 81 3f f7 95 78 3f 5b 0b 80 3f 19 9f 7f 3f
       1.0094727 0.9710383 1.0003465 0.9985214
0000f0 5c 4b 80 3f e9 77 80 3f e9 75 7d 3f a8 76 82 3f
       1.0022998 1.0036594 0.9900804 1.0192461

bias f4 [64]
000000 58 17 40 bc c0 de b9 ba 24 68 60 3c f1 f5 f3 bb
       -0.011724316 -0.0014180765 0.013696704 -0.00744509
000010 44 07 df bb a2 f5 81 39 f0 54 84 3b 6c 18 12 3c
       -0.006806286 0.00024787808 0.0040384457 0.008916955
000020 6d 76 a8 b9 6a 9e 11 bc fa d6 aa bb c2 57 f5 bb
       -0.0003213169 -0.0088878665 -0.0052136155 -0.007487268
000030 98 17 e0 bb 63 2f df bb d5 1d 97 3a 06 b4 52 bc
       -0.00683875 -0.006811069 0.0011529276 -0.012860304
000040 5f 23 bb ba c6 33 b5 b8 fa 96 61 3c 3d 89 0d bc
       -0.0014277509 -8.640396e-05 0.013768906 -0.008638677
000050 3a e1 d7 3b 7e e7 72 3b 81 02 48 bc e0 b4 1c bc
       0.0065881284 0.003706425 -0.012207628 -0.009564608
000060 56 e8 93 ba d5 a0 1d 3c f0 42 12 3c 38 47 02 3a
       -0.0011284451 0.009620865 0.008927092 0.0004969719
000070 6d 3c 8c 3b 08 e2 d3 3b 8e a7 9b 3b fd 9a ef 3a
       0.0042796643 0.006466154 0.0047501987 0.0018280443
000080 56 b1 8c b9 3c 5d 54 3c 9e 6f 28 3c d8 dc b2 bb
       -0.00026835006 0.012961682 0.010280518 -0.0054584555
000090 e9 15 19 bc 83 fd 35 bc e7 22 77 3a 4b 0b 62 3c
       -0.009343603 -0.011107805 0.0009427503 0.013796638
0000a0 ba b2 23 bc 70 63 aa 3b 60 61 e4 3a dd 30 77 bc
       -0.009991342 0.005199842 0.001742404 -0.0150873335
0000b0 73 f5 34 bb a1 69 d2 bb d7 a5 ef 3a 38 95 13 3c
       -0.002761212 -0.0064212834 0.0018283677 0.0090077445
0000c0 44 61 fd 3b fe be 04 bc f6 10 9a bb c7 19 07 3b
       0.007732542 -0.008102177 -0.004701729 0.002061473
0000d0 21 8f 2b ba 8c e2 58 3b b5 0e bc ba fb 3d 6f bb
       -0.000654446 0.0033094017 -0.0014347645 -0.003650545
0000e0 c6 5a 36 3c 7f 79 e9 3b d9 f4 70 3b 63 c0 5c bb
       0.0111300405 0.007125079 0.0036767034 -0.0033684007
0000f0 fe 91 c1 39 25 6a bc ba 11 b1 51 bc 24 bb 3b 3a
       0.000369206 -0.0014374895 -0.012798564 0.000716137

q_proj_weight f4 [16, 16]
000000 1e e5 4e 3e 8f 61 35 be 95 f8 b8 bd ed 41 d5 bd
       0.20204589 -0.17712997 -0.09031788 -0.10412965
000010 a9 fa 7c 3e 5f f7 c6 3e d7 82 ad 3c 41 d8 e1 bc
       0.24704994 0.38860604 0.021180553 -0.027568938
000020 6b 78 25 bd 07 7c 4f 3e e4 51 9a 3e e8 54 15 3e
       -0.040398043 0.20262156 0.30140603 0.1458317
000030 89 70 84 3e 38 93 12 be 79 25 b6 bc 05 fe bf be
       0.25867108 -0.14313972 -0.022234665 -0.3749849
000040 c2 05 33 3e 10 dc 68 be 6a 58 78 bd 86 dd da be
       0.17482665 -0.22740197 -0.060631193 -0.42747134
000050 c4 04 b1 3c e3 65 f8 3d a1 d9 8c 3e 96 de 95 bd
       0.021608718 0.12128808 0.27509788 -0.073178455
000060 6c e1 2a 3d 6e f4 ca 3e b3 25 97 3c 7d 56 96 3e
       0.041718885 0.3963961 0.018450594 0.2936286
000070 cd 26 db 3e b5 13 bd 3e d6 35 48 3e 39 42 97 3e
       0.4280304 0.36929098 0.19551787 0.2954271
000080 43 9c c1 3e 29 9d 1f bd 0d 1f a7 3e c7 cb 52 be
       0.3781453 -0.03896824 0.32640877 -0.20585547
000090 ad 2c 09 be ba 72 40 3e a7 03 81 be fd b8 12 be
       -0.13395949 0.18793765 -0.251981 -0.1432838
0000a0 76 ca 5d 3d 33 03 86 3c ad f9 90 3d c1 de b3 bd
       0.05414816 0.016358947 0.07078872 -0.08782721
0000b0 d5 78 20 3e 70 ec d3 3e 45 46 29 be e5 09 81 3e
       0.15671094 0.41391325 -0.16530712 0.2520286
0000c0 da 45 f3 3d 48 10 84 3e 2c d1 b1 3e 12 31 bd bc
       0.118785575 0.25793672 0.34729898 -0.023094688
0000d0 b1 f0 d1 bd 48 31 43 be f4 9c e2 bd 4c 8b 21 be
       -0.10250986 -0.19061768 -0.11065093 -0.15775794
0000e0 94 58 03 be b4 e6 81 3e b4 ae ec 3d c2 53 60 be
       -0.12826759 0.25371325 0.115567595 -0.21906951
0000f0 9e f2 7f 3e ba 9a 67 3d 00 a7 2a 3d ab 9f 32 3e
       0.24994895 0.056544043 0.04166317 0.17443721
000100 da 46 77 be b3 fc 46 bd 8c 3c ac 3e a2 c1 8a 3e
       -0.24148121 -0.048580837 0.33639944 0.27100855
000110 ab 72 7a 3e b3 0e 73 bd 85 9c 75 3d 00 2f 89 3e
       0.24457805 -0.05934019 0.05996372 0.2679367
000120 a9 b8 ad 3d 34 30 6c 3e 7d 2d 68 3e 09 a7 4a 3e
       0.08482487 0.23065263 0.22673602 0.19790281
000130 40 f9 46 3e f4 ad 98 be d6 43 c2 be 20 10 d8 be
       0.19431019 -0.29820216 -0.3794238 -0.42199802
000140 4c d6 ac 3e 4a 44 7a be de b6 ac be da 3b 6a 3d
       0.33757246 -0.24440113 -0.33733267 0.057185985
000150 47 16 e1 bd 85 13 fd 3d c8 9c c5 bd 1c 36 b9 3e
       -0.10990577 0.12357239 -0.09649044 0.36174095
000160 37 af ce be a9 8e e1 be f7 12 c0 3e c8 ab 4c be
       -0.40368053 -0.44054154 0.3751447 -0.19987404
000170 bd 89 dc 3d af c5 23 3e 49 2b aa 3d 94 02 81 be
       0.10768459 0.15993379 0.08309037 -0.2519728
000180 6b 3f 72 3d aa 74 92 be b3 b2 b8 3e 8b 79 98 3d
       0.05914251 -0.28604633 0.36073837 0.074450575
000190 98 f4 9b 3e e4 c9 97 3e d8 dc 35 3e c1 47 26 3e
       0.30460048 0.29646218 0.17760026 0.1623831
0001a0 8e 63 6a 3e b6 09 8a be 31 5e a2 3e 7f 10 c7 bd
       0.2288954 -0.26960534 0.31712487 -0.09719943
0001b0 60 40 ad 3e 1a 86 71 bc b0 7f 53 3e 62 d5 9e 3e
       0.33838177 -0.014741445 0.20654178 0.31022173
0001c0 0f c7 93 3d 71 3f b0 bd 63 c3 30 3e ce 49 e6 be
       0.07215702 -0.086058505 0.17262034 -0.44978184
0001d0 5d 6f fc bc 5d ed b7 bd 59 6b a9 be ca 1b 68 bc
       -0.03081482 -0.0898082 -0.33089712 -0.014166782
0001e0 c0 d0 00 3e ec a8 d7 be f0 7b c7 3e ae ae 71 3e
       0.12579632 -0.42121065 0.38961744 0.23601791
0001f0 dd 12 de 3e a2 d0 43 be 30 9d a7 be d4 0f 8b 3e
       0.43373767 -0.19122556 -0.32737112 0.27160513
000200 6e 79 c4 3e 34 8b 67 be 9a 67 74 be 30 b3 0d bd
       0.38373893 -0.22611696 -0.23867646 -0.034594715
000210 2d de b2 3e 6b 78 6e bd c7 1b cb be d5 42 2f be
       0.34935132 -0.05822031 -0.3966963 -0.17115338
000220 83 ce 78 be b8 2f a5 3e 4c ee ae be 34 be af 3e
       -0.24297528 0.3226297 -0.3416618 0.343248
000230 63 1d 12 3e d8 32 89 bd 6f 04 c7 bd 39 e2 7a 3e
       0.14269023 -0.06699151 -0.097176425 0.2450036
000240 8e d8 76 be 4d 16 23 be 45 1d c1 3e f1 bd 26 be
       -0.24106047 -0.15926476 0.37717643 -0.16283394
000250 cf 08 45 3d e8 f0 b0 3e 7c d4 aa be e6 ae 8a 3d
       0.048104104 0.34558797 -0.33365238 0.067716405
000260 4f de 5c 3b 7e 2d 5f be 35 1e af 3e 02 46 9b 3e
       0.0033701842 -0.21794698 0.34202734 0.3032685
000270 3a 06 14 bd 24 ca 4b bd 04 d4 88 3e d5 dc 0a be
       -0.03613875 -0.049753323 0.26724255 -0.13560803
000280 df 17 85 3e f8 90 9c be e4 5b b6 be d8 98 94 3e
       0.25994775 -0.30579352 -0.35616982 0.2902286
000290 ac d7 94 3e 3b 25 b3 be db e6 cf bd b2 68 3f 3e
       0.29070795 -0.34989342 -0.10151454 0.18692282
0002a0 f6 9e 64 3e 93 de 81 3e d1 87 a7 3e 6b 5f 5b be
       0.22326264 0.25365123 0.32720807 -0.21423118
0002b0 7d b5 c7 3d a6 28 cd 3e 5b 2a b5 be ca ce 96 3e
       0.09751413 0.40070075 -0.35383877 0.29454643
0002c0 37 3b 0e 3e 60 05 62 3c c2 42 dc 3e 39 2d 1a be
       0.13889776 0.013795227 0.43019682 -0.15056314
0002d0 86 79 0e be f9 ad a5 be 7b db ba 3e af 0a a0 be
       -0.13913545 -0.32359293 0.36495575 -0.3125815
0002e0 f1 e4 ae 3e 59 b7 96 be 2c 5d 58 3e b7 bd 5c be
       0.34159043 -0.29436758 0.21129292 -0.21556745
0002f0 dc 69 bf 3e 1d 2a 8f be ef 0b 87 be 57 7a ee bd
       0.37385452 -0.27961817 -0.26376292 -0.11644428
000300 f6 47 c7 be ff 77 e5 3e f6 4e 27 3e e1 f4 83 be
       -0.3892209 0.44818112 0.16338715 -0.25772765
000310 c0 ab af be 84 85 04 be 74 6f da 3d 91 ea 30 be
       -0.34310722 -0.12941557 0.10665789 -0.1727698
000320 ae 8c 90 3e 40 32 77 be d5 9c 0d 3e 77 51 ab 3e
       0.2823233 -0.24140263 0.13829358 0.3346059
000330 8e 3e a7 be 85 d5 c5 be 26 5f cf be b2 74 ba 3d
       -0.32664913 -0.38639465 -0.4050228 0.09104289
000340 fe 99 c7 3e 0d 93 a3 be 9f 54 4e bd 8c 2a 98 3e
       0.38984674 -0.31948128 -0.05037367 0.2971996
000350 57 60 b0 3e c1 07 3b 3e a5 7e ee 3d 2b 65 84 3d
       0.344485 0.18264677 0.11645249 0.06464609
000360 4f 5b 13 bc 12 c0 cb 3e 15 9c c9 3c 27 24 22 3e
       -0.008993938 0.39794976 0.024610559 0.15834104
000370 66 1e fd bc 97 33 b7 3e 91 f5 d9 be af 3c 0e be
       -0.030898284 0.35781547 -0.42570165 -0.13890336
000380 63 f3 c5 be 82 34 c3 3d d9 2c ce bd 63 6f af be
       -0.38662252 0.095314994 -0.10067148 -0.3426467
000390 77 51 a8 be d9 1e e4 3d 41 74 a6 3e 9f 01 b8 3e
       -0.32874653 0.11138696 0.3251057 0.35938737
0003a0 e7 45 89 3e 39 7b a4 be 81 7b ad 3e 22 91 d4 3e
       0.26811144 -0.3212526 0.33883289 0.41516978
0003b0 c2 7e d7 3b ff c9 d4 be 41 1c a1 be 86 6a bf be
       0.00657639 -0.4156036 -0.3146687 -0.37385958
0003c0 f0 e8 65 3d 8e 8a bf 3e 57 42 8e 3e 39 f0 51 be
       0.05613035 0.37410396 0.27784988 -0.20501794
0003d0 8f 3c 3d be a8 75 04 3e 34 db 6b be a1 2a 36 bd
       -0.18480133 0.12935507 -0.23032838 -0.044474248
0003e0 64 df 00 3e d4 05 1a be d6 89 06 3e 73 00 2b bd
       0.12585217 -0.15041286 0.13138518 -0.041748475
0003f0 4b 64 c6 3e 13 3f c0 be b8 65 b9 3e 33 49 8b 3e
       0.38748392 -0.37548122 0.36210418 0.27204284

k_proj_weight f4 [16, 64]
000000 4d fe 84 be e9 9d 8d 3d 01 51 41 bd f6 0b 15 3e
       -0.25975266 0.069148846 -0.047196392 0.14555344
000010 ed b4 48 3e 66 2d 0c be f0 71 27 be 7e 88 40 be
       0.19600268 -0.13689193 -0.16352057 -0.18802068
000020 4f 13 3a 3e 6e d1 87 be d7 4a 2a be 12 0c 6d 3e
       0.18171428 -0.2652697 -0.16630112 0.23149136
000030 6d 51 ee 3d 07 04 2e 3e bd cb 6f 3e 4b f6 79 be
       0.116366245 0.16993724 0.23417564 -0.2441036
000040 2a fc 32 bd 3a 03 9f bc 6b 5f 86 3e d3 18 b4 bd
       -0.043697514 -0.019410718 0.26244673 -0.08793797
000050 44 a2 d5 ba f1 2e 2e 3e b3 34 28 3e fe 93 3c be
       -0.0016298969 0.17010094 0.16426353 -0.1841583
000060 35 42 7f be bd 04 ef bd 2d 71 ba 3d 95 76 7a 3e
       -0.249276 -0.11670826 0.09103618 0.24459298
000070 64 42 17 3e ec 49 26 3e 0c 11 a9 3d 51 4b 17 bd
       0.1477142 0.16239136 0.082552046 -0.03693706
000080 5e a7 26 bd fc 44 67 3e 74 85 63 3d 7c 22 5c 3d
       -0.040686958 0.22584909 0.055547193 0.053743824
000090 c3 54 1c 3e 47 3b 54 3e e6 d2 ac 3d 54 04 60 bd
       0.15266709 0.20725738 0.08438663 -0.054691628
0000a0 e9 68 f9 bd 65 39 29 be bb 80 16 be 3b 46 65 3e
       -0.12178213 -0.165258 -0.14697544 0.22390072
0000b0 19 08 46 3e a6 e8 24 be 09 7e 73 3e f0 7c 55 bd
       0.19339027 -0.16104373 0.23778547 -0.052121103
0000c0 d1 1e 5f bd e5 07 b3 3d 5b fe 62 be 7e 94 2a be
       -0.05447275 0.0874174 -0.22167341 -0.16658208
0000d0 28 7c 40 bb a0 5c bc bd 5d 80 e4 3d f8 4f 96 bd
       -0.0029370878 -0.09197354 0.11157296 -0.073394716
0000e0 82 3a 4f be c2 e2 77 be ef 0f 8a 3e 3f 87 11 3e
       -0.20237163 -0.24207595 0.2696528 0.14211749
0000f0 01 d4 88 be 60 4c 7c be 5c 15 22 be 1b 70 84 3e
       -0.26724246 -0.2463851 -0.1582846 0.2586678
000100 c2 ec 19 3e b6 4b b9 3d de 66 11 3e 18 d2 6d 3d
       0.15031722 0.09047644 0.14199397 0.05806169
000110 5c a7 3f 3e 3e af 55 be ee 0c 66 3e 32 78 24 3e
       0.18716186 -0.20867631 0.2246587 0.16061476
000120 57 d7 b3 3d ba 3f 22 3e bb 31 83 bd 94 cf 13 be
       0.08781307 0.15844622 -0.0640597 -0.14434654
000130 c3 1c c4 bd ec 80 4d be 61 7b 7b bb 46 e7 1a 3e
       -0.09575798 -0.20068711 -0.00383731 0.15127286
000140 a2 40 a5 3d c6 95 eb bb b8 e7 ea 3d b1 c8 80 be
       0.08068968 -0.0071894852 0.11469978 -0.25153115
000150 82 08 35 be ec 9c 51 be 30 2a 87 3e 22 2d 87 be
       -0.17679027 -0.20470017 0.26399374 -0.2640162
000160 52 83 ef 3d 9e f4 3b 3e d8 30 a5 bd 21 36 b6 bd
       0.11694969 0.18355033 -0.08065957 -0.08897043
000170 4b 04 65 3e 89 aa 73 be f0 a3 89 be 72 27 0e bc
       0.22364919 -0.23795523 -0.26882887 -0.008676397
000180 23 e3 23 bd de 89 10 be 0b 12 94 3c b0 e2 0c 3e
       -0.040011536 -0.14115092 0.01807501 0.1375835
000190 89 d2 28 3e 57 71 bf 3d f6 6c 42 3e 66 5a 23 be
       0.16486563 0.0934779 0.18986878 -0.15952453
0001a0 47 ba 99 3c ac 13 e6 3d 17 1a 8c 3d 7c 3e b1 bd
       0.018765582 0.11234221 0.06840914 -0.08654496
0001b0 94 a1 5c 3e 8c 60 4e be 1d 32 f9 bd 7b 42 85 be
       0.21546012 -0.20154017 -0.121677615 -0.26027283
0001c0 35 24 2d 3d 55 af 50 be 9f be 56 3e e5 18 32 be
       0.042270858 -0.20379384 0.20971154 -0.17392309
0001d0 f8 70 df 3d 23 5f 7e 3e 7a e3 5f 3e e8 65 a6 3d
       0.10910219 0.2484098 0.21864119 0.08124906
0001e0 7e a9 f5 3d cf 8a 50 3d c6 41 0e 3e 74 3f 07 3b
       0.11995219 0.05091363 0.13892278 0.0020637186
0001f0 43 86 60 be 75 ee 34 3e 8d 52 4a be 9e 62 8e 3e
       -0.21926217 0.17669089 -0.19758053 0.27809614
000200 87 9e 95 ba 6d 71 f7 3d 1e 0f b3 bb 64 81 07 3e
       -0.0011415043 0.12082181 -0.0054644486 0.13232952
000210 f6 ee 2f 3e 13 f6 79 be 6b fa 23 3e 9c 15 95 bd
       0.17181 -0.24410276 0.16013496 -0.07279512
000220 a7 25 7e be 6b f2 73 be d7 80 9d 3c 21 76 4b 3e
       -0.2481905 -0.23822944 0.019226475 0.19869281
000230 fe 08 93 be b3 c2 a3 3d 36 aa e3 3d d6 fc 72 be
       -0.28717798 0.0799612 0.111164495 -0.23729262
000240 71 84 8f 3d c0 46 04 be e7 53 83 3d 8f 92 f6 bd
       0.07007683 -0.12917614 0.064124875 -0.120396726
000250 3a 83 60 3e 4c 47 69 be 8e 8f 14 3e c8 4b 00 be
       0.21925059 -0.22781104 0.14507887 -0.12528908
000260 03 d5 5a 3d 9d d6 d3 3c 01 60 75 be 17 f1 18 be
       0.0534258 0.025859172 -0.23962404 -0.14935718
000270 1e d4 22 3c ac 60 fe bb 1a fe f6 bd aa 26 44 3e
       0.009938268 -0.007762989 -0.12060185 0.19155374
000280 b5 07 f6 bd 13 7f 1c be 7f 9e f6 3d 35 68 3b bd
       -0.12013189 -0.1528285 0.120419495 -0.045753676
000290 5d d8 c3 3d 36 58 32 3e 89 2b ea bd 5d a7 90 3d
       0.095627524 0.17416462 -0.11434085 0.07063172
0002a0 c6 68 59 3e fe 77 5b 3d f9 b0 6d 3e fb 28 00 3e
       0.21231374 0.05358123 0.23212041 0.12515633
0002b0 ea a4 3e 3e 91 7f 5c 3e 5c 49 23 3e f3 37 9c 3d
       0.18617597 0.21533038 0.15945953 0.07627859
0002c0 60 fd 1c 3e cf 61 31 3e 55 3b c9 3c be f9 7b 3d
       0.1533103 0.17322467 0.024564425 0.06151747
0002d0 8f 7b 96 bd e0 81 1d bb c3 26 ea 3d c0 59 f5 bc
       -0.07347786 -0.002403371 0.114331745 -0.029950023
0002e0 d4 1d 7d bd 07 c5 76 3d 69 09 ec bc 96 dc 1a 3d
       -0.061796024 0.060246494 -0.02881308 0.037808023
0002f0 30 7a 92 bd 88 81 46 bc eb 74 5d bd 96 02 7c 3e
       -0.07152212 -0.012115844 -0.05406658 0.24610361
000300 15 a3 53 be 42 0a 62 be ce 75 8d bd c9 28 2b 3d
       -0.2066768 -0.22074226 -0.06907235 0.041786943
000310 f4 ec 1e 3e 62 87 c6 3d 4e df a6 3c 5c bb 74 be
       0.15520078 0.09693791 0.020370152 -0.23899597
000320 12 82 0a be ab ee 5d 3d e3 99 ab bd 1c 74 37 be
       -0.1352618 0.05418269 -0.08378961 -0.17915386
000330 9d 22 ce 3c ec ed 47 3e 6d 03 13 3d ec a9 66 3e
       0.02516299 0.19524354 0.03589194 0.22525758
000340 2c 3c 7c 3e b2 ce 0c 3c 84 0c 94 3e 55 10 95 3d
       0.24632329 0.008594202 0.289158 0.07278506
000350 43 75 c0 3d cb 63 e9 3d d5 fd 75 be ee 9f c1 3d
       0.09397366 0.11395987 -0.2402261 0.09454332
000360 7d 60 50 3e c0 e4 77 3d e3 75 05 3d a4 24 7a bd
       0.20349307 0.060520887 0.03258313 -0.0610701
000370 3e d7 65 be 06 aa 5c 3b e9 f7 f6 3d ea cb 06 3e
       -0.2244539 0.0033670678 0.12059004 0.13163725
000380 59 11 85 3e f1 4b 27 be 2e 95 79 3e 17 bb 83 bd
       0.25989798 -0.16337563 0.24373314 -0.06432169
000390 d4 f0 8d bd a7 08 0f be e5 dc 37 be 4d 96 6f 3d
       -0.069307 -0.13968144 -0.17955358 0.058492947
0003a0 a4 86 30 bd e7 c9 d1 3c 4a ea 88 be e6 78 aa bd
       -0.043097153 0.02560897 -0.26741248 -0.08323841
0003b0 cc 4f dc 3d 98 75 0c be 4e 27 7c 3e d6 f6 33 be
       0.107574075 -0.13716733 0.24624369 -0.17574629
0003c0 2b 9f 0d be 8d a6 43 3e e7 41 81 3e 23 99 0a 3e
       -0.13830249 0.19106503 0.25245592 0.1353498
0003d0 55 ea 2f 3e 2d 38 43 be 80 b5 bc 3c eb d3 20 bd
       0.17179234 -0.19064398 0.023035765 -0.0392646
0003e0 61 82 d8 bd 2e 6f 48 3d 08 d3 d0 3d 63 ad 35 be
       -0.10571743 0.048934154 0.10196501 -0.17741923
0003f0 90 7f 30 bd f1 a5 9f 3d 20 27 90 3e ca 0b 4b be
       -0.043090403 0.07795323 0.2815485 -0.19828716

v_proj_weight f4 [16, 64]
000000 7e 65 01 bd 3e 08 67 3e bf cd 5a 3e 13 11 b1 3d
       -0.03159093 0.22561738 0.21367548 0.08645835
000010 03 57 64 be 2c 70 82 3e bb 1f 79 be 73 61 73 be
       -0.22298817 0.25476205 -0.2432851 -0.23767643
000020 d4 7f 68 3d a6 65 a4 bd 4e 1a 84 be 68 ea 3f 3e
       0.05676253 -0.080272004 -0.2580132 0.18741763
000030 08 0a c3 3c 65 38 e8 bd a5 3d 89 3d 82 75 53 3e
       0.023808494 -0.113388814 0.06701211 0.20650294
000040 1c cf 17 bd e7 ab 4b 3e 42 35 30 3e 7e 81 7a 3d
       -0.03706275 0.19889794 0.17207816 0.06115865
000050 96 6e 15 be f4 a1 41 be c5 7e 31 bd de 1b 94 bd
       -0.14592966 -0.18909436 -0.043333787 -0.07231878
000060 51 4f 5a be 46 7a 7a be 41 dc 30 be ce b1 e2 ba
       -0.2131932 -0.24460706 -0.1727152 -0.0017295422
000070 9f 23 15 be 30 7f 67 be 5b c8 40 bd 92 df 02 be
       -0.1456437 -0.22607112 -0.047066074 -0.12780598
000080 39 3e 94 bd 54 39 05 3e 41 3a 13 3e b1 48 3d 3e
       -0.072384305 0.1301015 0.14377691 0.18484761
000090 be f6 8a 3e 43 6a dd b8 f2 62 02 be 40 b2 82 bc
       0.27141374 -0.00010557894 -0.12733057 -0.015954137
0000a0 98 e6 81 3d 17 57 cf bd 82 d5 57 3e 14 aa 2d 3e
       0.063428104 -0.10124033 0.2107754 0.16959411
0000b0 f8 56 48 be 09 72 1f 3d 7b f6 97 3c db d0 8e 3d
       -0.19564426 0.03892711 0.018550148 0.0697343
0000c0 de 3a 46 be 02 43 89 3e d0 c1 8e bd 67 12 d7 3d
       -0.19358394 0.26808935 -0.069705606 0.10501557
0000d0 fb 0a 17 be c5 11 a1 3d aa 7b ef bd bb d4 29 be
       -0.14750282 0.078647174 -0.11693509 -0.16585056
0000e0 0a fc 6f be 23 57 cc 3d 8a d1 c6 3c 24 0e d8 3d
       -0.23435989 0.099775575 0.024269838 0.10549572
0000f0 e6 8e 1b be 0f 4f 88 3d 43 6a 04 be 10 1c b8 3d
       -0.1519123 0.06655704 -0.1293116 0.089897275
000100 fa d6 8d 3e 86 45 66 be b4 65 ed 3d 6a 56 36 be
       0.27703077 -0.22487459 0.11591664 -0.17806402
000110 cd ab b8 3d dd be 9f bd af 8d e1 3d a5 44 5b be
       0.090171434 -0.07800076 0.11013352 -0.21412905
000120 76 d4 46 3e 3a 2a 2f 3e b0 31 3c be 4d f7 45 be
       0.19416985 0.17105952 -0.1837833 -0.19332619
000130 a3 f8 23 3e e3 1d 28 be 35 c3 c4 3d 55 4b fc bd
       0.16012816 -0.16417651 0.09607545 -0.12319056
000140 57 22 84 be b5 75 98 3d ed 8f fa bd 89 9b 20 be
       -0.2580745 0.07444326 -0.12234483 -0.15684332
000150 c0 22 8c 3d 74 6d f6 3d 4f cd 58 3e 81 94 87 3e
       0.068425655 0.12032595 0.21172069 0.26480487
000160 84 e5 d7 3d f7 26 b4 bd a4 3e 4b bd 2a 80 42 3e
       0.105418235 -0.087964945 -0.049620286 0.18994203
000170 f8 86 68 be 45 48 4f 3e 3e 60 03 3e 5b e1 c9 3d
       -0.22707736 0.20242412 0.12829682 0.09857436
000180 aa cc 8d 3d d5 7c 5d be 50 f2 cd 3d 9d 79 8d bc
       0.06923802 -0.21629651 0.10055983 -0.017269904
000190 88 68 a3 3b 8b 10 0e be 03 92 42 3e 35 02 45 bd
       0.0049868263 -0.13873498 0.19001012 -0.048097808
0001a0 c1 39 b7 ba bc f2 61 be ae 6e 4e 3e dc b7 82 be
       -0.0013979004 -0.22065252 0.20159408 -0.255309
0001b0 45 83 26 3e bf 58 0b 3e ec 08 01 3d 02 84 89 be
       0.16261013 0.13608073 0.03150265 -0.26858526
0001c0 db e9 f8 bd 2f 05 03 bd 56 d2 4b be af ff a2 bd
       -0.121539794 -0.031987365 -0.19904456 -0.07958924
0001d0 13 a4 6a bd e0 ae a5 bd 38 bf 3b 3e ca c4 84 3e
       -0.05728538 -0.080899954 0.18334663 0.25931388
0001e0 45 b0 0b be 1c 38 02 3e 16 a2 5d 3c ff 8c 4f 3e
       -0.1364146 0.12716717 0.013527414 0.2026863
0001f0 bd 5c 7b be 55 13 f6 bd 44 e5 61 bd 10 30 78 3e
       -0.24547096 -0.12015406 -0.055150285 0.24237084
000200 6e e3 5a 3e 8c ac 6a bd c6 e1 20 be fa 9f 12 be
       0.2137582 -0.05729346 -0.15711126 -0.14318839
000210 14 89 b5 3c d8 5e 4f 3d e0 34 15 be a9 e1 a6 3d
       0.02216009 0.05062756 -0.14570951 0.0814851
000220 57 e7 18 bd e3 8d 4c 3e 90 9c df bd 0f c3 27 be
       -0.037329998 0.19976 -0.10918534 -0.16383003
000230 0b 4c 2f 3d cd b2 d6 3b 2c 43 2a 3e ac e6 89 3e
       0.04279713 0.0065520764 0.16627187 0.269338
000240 5e 6a f2 bd 0e 8b 79 3e 7c 48 05 3e d7 67 6d 3e
       -0.11836694 0.24369451 0.13015932 0.23184143
000250 13 e3 87 3d e9 e7 12 bd 14 6e cd 3c e1 9e 6c 3c
       0.06635108 -0.035865698 0.025076903 0.014442177
000260 7a f0 42 be 91 4b a5 bd 39 f8 51 3e fd f9 03 3d
       -0.19037047 -0.08071054 0.20504846 0.03222083
000270 8e 47 89 3d 91 99 1a 3d e6 1b 8a 3d 47 c7 48 be
       0.06703101 0.03774411 0.067436025 -0.19607268
000280 d8 10 24 bd 20 65 72 bd d7 99 c5 bd 51 13 28 be
       -0.040055126 -0.05917847 -0.09648483 -0.16413619
000290 ab a2 29 bd 02 8c 0b bd fd b3 85 bd ed 52 3b bd
       -0.041414898 -0.03406907 -0.06528471 -0.04573338
0002a0 94 d1 98 bd e6 78 4c bd 48 8e 51 be 41 9a 5c 3e
       -0.07461849 -0.049919985 -0.20464432 0.21543218
0002b0 d0 c2 08 be 94 f0 13 3e 1d 85 7e be 92 6a e5 bc
       -0.13355565 0.14447242 -0.24855466 -0.028004918
0002c0 c2 b5 d0 bc 85 d7 6a be 6e b7 41 3c 13 90 53 be
       -0.025477294 -0.22933777 0.011823518 -0.20660429
0002d0 f4 2d a8 3d df 69 11 3e 8c 42 0c bd 3c 72 20 3d
       0.0821189 0.14200543 -0.03424315 0.039171442
0002e0 ea a1 16 be 4e bc d5 3d c5 ef 81 be b1 9b 89 3e
       -0.14710203 0.10436307 -0.25378242 0.26876596
0002f0 eb 2f 2c bc 80 bb 83 3d b4 db 5a 3e 43 d6 45 be
       -0.010509471 0.06432247 0.21372873 -0.19320016
000300 bd 16 f6 bd 62 ee 0a 3d 15 69 8c be 6a f0 49 3d
       -0.12016056 0.033918746 -0.2742392 0.049301542
000310 fd 3a 01 bd 75 66 80 be c8 5c 36 bd b8 ba 32 be
       -0.031550396 -0.2507817 -0.044522077 -0.1745404
000320 d2 68 15 3d 96 de 60 3e dc f4 80 3e 0b 31 83 be
       0.036476918 0.2195991 0.25186813 -0.25623354
000330 4a 3f b2 3d 6e 45 4e be 9a 9b 98 3d ee a4 15 3e
       0.08703478 -0.20143673 0.07451554 0.14613697
000340 1b a8 8d be 27 8d 4b be 96 35 75 be f1 f9 0b bd
       -0.27667317 -0.19878064 -0.23946223 -0.03417391
000350 23 a5 cf 3d 05 a6 47 be cc d6 36 bd bf 36 c8 bd
       0.10138919 -0.19496925 -0.04463844 -0.09776067
000360 b8 08 84 3e bd 4f 6d be e3 9e 1a be 85 5d 17 3c
       0.25787902 -0.23174949 -0.15099673 0.009238605
000370 44 15 6c be 22 f7 46 3e a5 17 82 be 7c 32 d3 bd
       -0.23054987 0.19430211 -0.25408664 -0.103123635
000380 4d 0d f1 bd 1d f6 d0 bc 1d 1f 00 be 42 8b 4b 3e
       -0.11770115 -0.025507981 -0.12511869 0.19877341
000390 74 cb 74 be c8 8d 21 be 66 2e df bd b8 f4 7e be
       -0.23905736 -0.15776742 -0.10897522 -0.2489804
0003a0 8b ca 81 be 41 86 b9 3d 74 7d 88 3e 51 0d e7 bc
       -0.2534984 0.0905881 0.26658213 -0.028204592
0003b0 f0 06 bb bd b7 0c 00 3e 9b 73 1c 3e 23 fc 81 be
       -0.091321826 0.1250485 0.15278475 -0.25387678
0003c0 42 6e 14 be 25 df 70 3e d6 d1 04 3e 63 f4 7d be
       -0.14495185 0.23522623 0.12970671 -0.24800257
0003d0 ba 8f d6 ba 88 ab 54 be 60 02 52 be ae 6d 19 be
       -0.0016369738 -0.20768559 -0.20508718 -0.14983246
0003e0 5e 21 90 3e 91 0b 30 be 20 6c 3c 3e 2d e8 71 be
       0.28150457 -0.17191912 0.18400621 -0.23623724
0003f0 66 b5 b4 bc 82 28 82 3e ca 39 85 bd a5 ff b0 bd
       -0.022059154 0.2542153 -0.06505163 -0.0864251

in_proj_bias f4 [48]
000000 b4 06 b6 3a 12 4c 0b bc cc 69 2d 3c 2c ab 9f 39
       0.0013887496 -0.008502023 0.010584306 0.00030454376
000010 bb 76 26 bc 40 70 a6 bb bc 34 bb 3b 60 2e 3d bb
       -0.0101601435 -0.005079299 0.0057130735 -0.0028866753
000020 44 1a 85 bc 02 fc ba ba 18 9e ea bb 29 e9 aa bb
       -0.016247876 -0.0014265778 -0.0071599595 -0.005215783
000030 56 20 58 3b 26 bc 82 bc 36 79 cf bb 9e 90 31 3c
       0.0032978258 -0.015958857 -0.006331588 0.010837702
000040 ac 2d 7c b6 cb 73 7c b3 41 10 80 35 57 51 28 b3
       -3.757751e-06 -5.8778635e-08 9.541474e-07 -3.9189526e-08
000050 69 e6 e8 b5 86 e1 51 b5 d5 bb ae 35 09 8a 43 b6
       -1.7352405e-06 -7.8186747e-07 1.3018677e-06 -2.9137611e-06
000060 05 f7 1e 37 f6 0f 91 b6 2d 67 35 37 4a 5f 2d 36
       9.475048e-06 -4.323195e-06 1.0812463e-05 2.5834474e-06
000070 8c 21 38 b7 d3 fe 81 b5 3b 73 4e 34 ec 7b 86 b6
       -1.0975065e-05 -9.685413e-07 1.9227166e-07 -4.0079376e-06
000080 85 68 18 bc 02 ff 16 3b 88 6c 2e bc b1 bc 1e bb
       -0.009302263 0.002304018 -0.010645993 -0.0024221356
000090 3f d0 aa 3b 8f 97 3b 3c 1c a0 05 bb fd 8c dd ba
       0.005212813 0.011449709 -0.0020389622 -0.001690298
0000a0 55 58 b7 bb 42 a1 83 bc 87 61 01 bb 2e f3 75 3b
       -0.005595247 -0.016068105 -0.0019741969 0.003752898
0000b0 28 ed 9d ba 21 cd 53 3c 23 5f 9f ba bc 7a 5c bc
       -0.0012048827 0.0129273245 -0.001215909 -0.0134569965

weight f4 [16, 16]
000000 c6 45 40 3e 2b 03 aa bc 58 ec 41 3e d6 1b 28 be
       0.18776616 -0.020753464 0.18937814 -0.16416869
000010 88 29 51 be 21 b0 1a 3e 09 d5 ec 3d b7 3d 64 be
       -0.20425999 0.1510625 0.11564071 -0.22289167
000020 ea a9 f1 3d 69 4e 46 bd ff fc f3 3d 43 cb 62 3e
       0.11799987 -0.04841462 0.119134896 0.2214785
000030 90 f5 5e 3e c5 a2 73 3c d2 14 f4 3d c6 cf 6c be
       0.21773362 0.01487035 0.11918034 -0.23126134
000040 52 47 06 3d 21 1a d1 3d 88 0f f4 3d 92 05 b2 3d
       0.03278286 0.10210062 0.11917025 0.08692469
000050 b9 04 08 3e 80 e0 21 3b 8d ad 89 3d a4 23 7b be
       0.13283052 0.0024700463 0.06722555 -0.24525315
000060 c1 cc fe bd 56 2b 0a 3e 15 51 97 3d 56 43 05 3e
       -0.124413975 0.13493094 0.07388512 0.13013968
000070 c6 ee 91 3d 27 1d 6c be 37 f1 d9 3d 67 1b 82 bd
       0.071256205 -0.23057996 0.10641711 -0.06352883
000080 c3 99 9b bc 01 3d df 3a 38 21 47 3e 61 52 65 3e
       -0.018994218 0.001703173 0.19446266 0.22394706
000090 bc 70 fc 3d 4d 80 c2 bd 89 75 b0 3d f6 d0 cb 3d
       0.1232619 -0.09497128 0.08616168 0.099519655
0000a0 f5 0a 4f 3e c2 92 17 3d 05 00 57 be 10 df c0 3d
       0.20219024 0.037005194 -0.20996101 0.09417546
0000b0 83 92 44 be 8d cf 03 3b 20 87 1d 3e a1 d7 d2 3d
       -0.19196515 0.0020112724 0.15383577 0.10295034
0000c0 f4 62 5a 3e de 53 52 3e a6 2a 63 be 1b 7d 53 3c
       0.2132681 0.20539805 -0.22184238 0.012908245
0000d0 22 6a ac 3d d7 8b 21 bd 5c b5 e2 bd 94 1d 83 3e
       0.08418681 -0.039440002 -0.11069748 0.25608504
0000e0 ff 8e 17 be 9f 48 6b be ab 2a 72 be 25 4c 21 be
       -0.14800642 -0.22976921 -0.23649089 -0.15751703
0000f0 a9 ba 08 3d 91 3c 47 3e 31 51 4e bd 19 30 55 be
       0.033381138 0.19456698 -0.0503704 -0.20819129
000100 7f 40 56 3e 2a e5 49 bd 68 2b 9b bd ef d8 be bc
       0.20923041 -0.049290814 -0.075766385 -0.023296801
000110 37 83 92 3d 93 86 30 bd ca 3e 16 3e 93 f2 02 3e
       0.071539335 -0.04309709 0.1467239 0.12787847
000120 8f b2 29 be c4 5b 64 3e c9 8f fe 3d ff 64 b6 bc
       -0.16572021 0.22300631 0.124297686 -0.022264956
000130 e8 fd 11 3e 72 78 68 bd 03 27 5f bd 69 63 cf 3d
       0.14257014 -0.05675549 -0.054480564 0.10126383
000140 56 22 25 be 82 de 30 bd 91 d6 24 be 0a 93 05 bd
       -0.1612638 -0.04318095 -0.16097476 -0.03261093
000150 08 9f ae bd 16 13 99 bd 63 73 6d bd 2c f6 3a 3e
       -0.085264266 -0.074743435 -0.05797137 0.1825797
000160 93 08 23 3d 19 eb 84 be 2a d1 28 be de 8f c2 3b
       0.0398031 -0.25960615 -0.1648604 0.0059375605
000170 2f cb 93 3d a8 8b 17 3e a6 0f 76 3e 65 3f 25 be
       0.072164886 0.14799368 0.24029407 -0.16137464
000180 ef c4 7a 3e be 1f 2b 3e 89 8b 14 be b8 43 35 be
       0.24489187 0.16711327 -0.14506353 -0.17701614
000190 3b 2f 47 be 5b 76 91 bc f0 5b b0 bd 9a 80 87 be
       -0.1945161 -0.017756632 -0.08611286 -0.26465303
0001a0 9c 4c 8f bd 7d 0f 29 3e cf 5e 0c bd 37 bc 4a be
       -0.06997034 0.16509815 -0.034270104 -0.19798361
0001b0 e2 90 34 be 37 0c a7 3d 9d a1 84 3d 99 6f c4 bd
       -0.17633393 0.08156627 0.06476138 -0.09591598
0001c0 3d 36 63 be 7b 7e c4 3d 70 dc 08 be 18 37 5b be
       -0.22188659 0.09594437 -0.1336534 -0.21407735
0001d0 23 f2 5b 3e 67 6f ed 3d 02 84 17 bc 7c 89 23 3d
       0.21479087 0.11593514 -0.009247782 0.039926037
0001e0 7d 2b 27 3e 41 59 79 be 0f e3 81 bd 2a 15 d4 bd
       0.16325183 -0.24350454 -0.06342136 -0.10355599
0001f0 2c 96 70 be 02 bb 7b 3e e5 ed 81 be fc ff f0 bd
       -0.23494786 0.24583057 -0.25376812 -0.11767575
000200 b2 43 e8 3d 90 9f 85 3e dd 8b 64 bd e7 56 67 3e
       0.11341037 0.260983 -0.055797447 0.22591744
000210 8e 2b 9a 3c 31 74 5f be fb 65 72 be 84 35 02 be
       0.018819597 -0.21821667 -0.23671715 -0.12715727
000220 51 df c6 bc 32 1d 4a 3e 72 16 c4 bd 85 e6 73 bd
       -0.024276407 0.197377 -0.095745936 -0.059546012
000230 17 e0 2e 3e ff 4b 45 bd 34 06 b9 3d 6f 4a bf bc
       0.17077671 -0.04816818 0.09034386 -0.023350922
000240 00 2a da bd ef 32 13 be ba 04 60 3e 77 5e 00 be
       -0.10652542 -0.14374898 0.21876803 -0.12536035
000250 e5 a5 4b 3d 2f 5c bf 3d 9d da 48 3d aa 4e 48 bd
       0.049718756 0.093437545 0.04903661 -0.048903145
000260 7f 8d 50 bd ee b5 ef bd 15 a3 d0 3d 2d 9d 9f bd
       -0.05091619 -0.11704622 0.101873554 -0.07793651
000270 70 17 f4 3d 31 03 12 3e fa 88 85 3d 62 e1 fb bd
       0.11918533 0.1425903 0.06520267 -0.12298848
000280 ea c0 32 be 5f 52 81 bd 17 95 99 3d 2c c2 45 3c
       -0.17456403 -0.06314539 0.0749914 0.01207022
000290 be 69 78 3e 1d 4e 40 3e 02 f3 a5 bd bb fd 1e 3e
       0.24259087 0.18779798 -0.08102991 0.15526478
0002a0 e9 9a 2a be 9e 6c 03 be 97 03 36 3e 17 19 34 be
       -0.16660656 -0.12834403 0.17774807 -0.17587696
0002b0 ca ce 80 bd 55 b6 40 be fe 59 01 3e 45 f7 4e 3e
       -0.06289442 -0.18819554 0.12631986 0.20211513
0002c0 53 37 57 3e e1 42 cd bd 9d 41 2e be 02 ca bc 3d
       0.21017198 -0.10022522 -0.17017217 0.092182174
0002d0 0c ba 17 be f1 41 c9 bd 33 c9 44 be e7 84 4a 3e
       -0.14817065 -0.098270305 -0.19217376 0.1977726
0002e0 ba a5 31 bc bd 1d b5 3c 04 2a 91 3c 07 91 7b 3d
       -0.010842735 0.022108907 0.01772023 0.061417606
0002f0 55 6e d3 bd 13 c1 63 3e 76 fe 51 be 29 a2 07 bc
       -0.103237785 0.2224162 -0.20507225 -0.008278408
000300 c4 f9 13 be fe 84 30 be 0e 02 fd 3d d4 16 1f 3e
       -0.14450747 -0.17238232 0.123539075 0.15536052
000310 9d 69 d1 3d 79 ce 6a 3d 7c a4 17 3e d3 b8 04 3e
       0.10225222 0.057325814 0.1480884 0.1296113
000320 00 d8 9c bd 3a 12 d0 bd b7 18 91 3d 4c 0d 34 3e
       -0.07658386 -0.101597264 0.07084792 0.17583197
000330 44 b3 1b 3e 45 e2 c3 bb 95 25 87 3e ea 6e 3a be
       0.15205103 -0.005977901 0.2639586 -0.18206373
000340 e4 7a 9c 3d f4 e7 22 3e f5 82 b8 3c 2e 2e 1a 3e
       0.07640627 0.15908796 0.022523383 0.15056679
000350 fe 98 7b 3e 8f 30 40 be da dd 0b 3e 96 c1 e2 3d
       0.2457008 -0.18768524 0.13658848 0.1107208
000360 7e ee 17 3e a2 aa 06 3e 34 c9 2e 3e 94 43 94 3d
       0.14837071 0.13151029 0.1706894 0.07239452
000370 03 11 23 3e 21 5d 72 be 9c ef 6f be 88 18 02 3e
       0.15924458 -0.23668338 -0.23431247 0.1270467
000380 c2 2f 64 3e fa 85 5f bd 16 7c 1f 3e a0 7c 1d 3c
       0.22283843 -0.05457113 0.15574679 0.009612232
000390 1e 28 de 3d be 45 b9 bc ce b1 a1 3d a8 3a d8 bd
       0.108474955 -0.022616263 0.07895242 -0.10558063
0003a0 95 9e 3b be 70 04 0e 3e 75 0b d3 bd 70 cf 33 3e
       -0.18322213 0.1386888 -0.1030492 0.175596
0003b0 ff 06 36 3d 78 db b1 bd de 1e 82 3e 5a ff 4d 3e
       0.044440266 -0.086844385 0.25414175 0.2011694
0003c0 32 85 e2 bd f2 47 b0 3d 94 e1 ae 3d 0b dd 0f be
       -0.11060561 0.086074725 0.08539119 -0.14049165
0003d0 6e e5 95 3c eb 23 73 be eb a4 2d bc 66 f4 61 be
       0.018297877 -0.2374417 -0.010598402 -0.22065887
0003e0 99 c3 6b 3e e1 be 0f 3e 25 cc 49 3e 09 5d 86 3d
       0.23023833 0.14037658 0.19706781 0.06560714
0003f0 a4 01 e1 bd a9 02 e8 3d de f3 ee 3d 7a fc 0b 3e
       -0.10986641 0.113286324 0.11667608 0.13670531

bias f4 [16]
000000 cf fa 18 3b cf e4 7f 3c 43 d6 1f bc 56 f9 b8 3b
       0.0023342853 0.015618517 -0.009755674 0.0056449575
000010 d9 f6 e7 3b e7 08 a2 3b 7a 5b fc bb f1 da 33 3c
       0.007078987 0.004944909 -0.0077013345 0.010977493
000020 a2 3d 28 bb b8 0b 58 bc 66 3b ea ba 4a 37 16 bb
       -0.0025671502 -0.013186388 -0.0017870485 -0.0022921138
000030 4d dd 21 3b c9 7f 9b bc 52 c1 10 bc 92 32 4f 3b
       0.0024698556 -0.018981831 -0.008835154 0.0031615836

weight f4 [16]
000000 73 71 83 3f 5d 9e 84 3f 26 72 72 3f 33 b1 81 3f
       1.0268997 1.0360829 0.94705427 1.0132202
000010 cb 79 82 3f a2 45 81 3f 94 07 7c 3f d4 68 7c 3f
       1.0193418 1.0099375 0.98449063 0.98597455
000020 9e 8b 78 3f cb e7 83 3f e3 42 84 3f e2 29 75 3f
       0.9708804 1.0305113 1.0332912 0.95767033
000030 c5 39 75 3f f3 89 7a 3f b1 21 80 3f 4e 6c 7b 3f
       0.95791274 0.97866744 1.0010282 0.98212135

bias f4 [16]
000000 b0 73 7c bc 2e ec e9 3b ae c8 41 bc 81 21 c8 bc
       -0.015408441 0.0071387505 -0.011827631 -0.024430038
000010 e3 8b 32 3c 5f df c6 ba b4 8b be bc 5b d9 99 bb
       0.010897609 -0.0015172771 -0.023259975 -0.0046951002
000020 7e 4a b1 ba 8d 2d 08 bc 10 c8 04 bd 76 ad 1c bc
       -0.0013526229 -0.008311641 -0.032417357 -0.009562841
000030 f4 f9 7f bb 84 a8 fc bb 2b 36 b0 3c 87 6b a9 bc
       -0.0039058896 -0.0077105183 0.021510204 -0.020681156
